<?xml version="1.0" ?>
<net name="resnet-50-tf-mean-inside" version="10">
	<layers>
		<layer id="0" name="input_tensor" type="Parameter" version="opset1">
			<data element_type="f16" shape="1,3,224,224"/>
			<output>
				<port id="0" precision="FP16">
					<dim>1</dim>
					<dim>3</dim>
					<dim>224</dim>
					<dim>224</dim>
				</port>
			</output>
		</layer>
		<layer id="1" name="data_add_/copy_const295_const" type="Const" version="opset1">
			<data element_type="f16" offset="0" shape="1,3,1,1" size="6"/>
			<output>
				<port id="1" precision="FP16">
					<dim>1</dim>
					<dim>3</dim>
					<dim>1</dim>
					<dim>1</dim>
				</port>
			</output>
		</layer>
		<layer id="2" name="Add_" type="Add" version="opset1">
			<input>
				<port id="0">
					<dim>1</dim>
					<dim>3</dim>
					<dim>224</dim>
					<dim>224</dim>
				</port>
				<port id="1">
					<dim>1</dim>
					<dim>3</dim>
					<dim>1</dim>
					<dim>1</dim>
				</port>
			</input>
			<output>
				<port id="2" precision="FP16">
					<dim>1</dim>
					<dim>3</dim>
					<dim>224</dim>
					<dim>224</dim>
				</port>
			</output>
		</layer>
		<layer id="3" name="13511355_const" type="Const" version="opset1">
			<data element_type="f16" offset="6" shape="" size="2"/>
			<output>
				<port id="1" precision="FP16"/>
			</output>
		</layer>
		<layer id="4" name="13521356_const" type="Const" version="opset1">
			<data element_type="f16" offset="8" shape="" size="2"/>
			<output>
				<port id="1" precision="FP16"/>
			</output>
		</layer>
		<layer id="5" name="13531357_const" type="Const" version="opset1">
			<data element_type="f16" offset="6" shape="" size="2"/>
			<output>
				<port id="1" precision="FP16"/>
			</output>
		</layer>
		<layer id="6" name="13541358_const" type="Const" version="opset1">
			<data element_type="f16" offset="8" shape="" size="2"/>
			<output>
				<port id="1" precision="FP16"/>
			</output>
		</layer>
		<layer id="7" name="resnet_model/conv2d/Conv2D/fq_input_0" type="FakeQuantize" version="opset1">
			<data levels="256"/>
			<input>
				<port id="0">
					<dim>1</dim>
					<dim>3</dim>
					<dim>224</dim>
					<dim>224</dim>
				</port>
				<port id="1"/>
				<port id="2"/>
				<port id="3"/>
				<port id="4"/>
			</input>
			<output>
				<port id="5" precision="FP16">
					<dim>1</dim>
					<dim>3</dim>
					<dim>224</dim>
					<dim>224</dim>
				</port>
			</output>
		</layer>
		<layer id="8" name="Mul1_/Fused_Mul_1034210344_const297_const" type="Const" version="opset1">
			<data element_type="f16" offset="10" shape="64,3,7,7" size="18816"/>
			<output>
				<port id="1" precision="FP16">
					<dim>64</dim>
					<dim>3</dim>
					<dim>7</dim>
					<dim>7</dim>
				</port>
			</output>
		</layer>
		<layer id="9" name="13611365_const" type="Const" version="opset1">
			<data element_type="f16" offset="18826" shape="64,1,1,1" size="128"/>
			<output>
				<port id="1" precision="FP16">
					<dim>64</dim>
					<dim>1</dim>
					<dim>1</dim>
					<dim>1</dim>
				</port>
			</output>
		</layer>
		<layer id="10" name="13621366_const" type="Const" version="opset1">
			<data element_type="f16" offset="18954" shape="64,1,1,1" size="128"/>
			<output>
				<port id="1" precision="FP16">
					<dim>64</dim>
					<dim>1</dim>
					<dim>1</dim>
					<dim>1</dim>
				</port>
			</output>
		</layer>
		<layer id="11" name="13631367_const" type="Const" version="opset1">
			<data element_type="f16" offset="18826" shape="64,1,1,1" size="128"/>
			<output>
				<port id="1" precision="FP16">
					<dim>64</dim>
					<dim>1</dim>
					<dim>1</dim>
					<dim>1</dim>
				</port>
			</output>
		</layer>
		<layer id="12" name="13641368_const" type="Const" version="opset1">
			<data element_type="f16" offset="18954" shape="64,1,1,1" size="128"/>
			<output>
				<port id="1" precision="FP16">
					<dim>64</dim>
					<dim>1</dim>
					<dim>1</dim>
					<dim>1</dim>
				</port>
			</output>
		</layer>
		<layer id="13" name="resnet_model/conv2d/Conv2D/fq_weights_1" type="FakeQuantize" version="opset1">
			<data levels="255"/>
			<input>
				<port id="0">
					<dim>64</dim>
					<dim>3</dim>
					<dim>7</dim>
					<dim>7</dim>
				</port>
				<port id="1">
					<dim>64</dim>
					<dim>1</dim>
					<dim>1</dim>
					<dim>1</dim>
				</port>
				<port id="2">
					<dim>64</dim>
					<dim>1</dim>
					<dim>1</dim>
					<dim>1</dim>
				</port>
				<port id="3">
					<dim>64</dim>
					<dim>1</dim>
					<dim>1</dim>
					<dim>1</dim>
				</port>
				<port id="4">
					<dim>64</dim>
					<dim>1</dim>
					<dim>1</dim>
					<dim>1</dim>
				</port>
			</input>
			<output>
				<port id="5" precision="FP16">
					<dim>64</dim>
					<dim>3</dim>
					<dim>7</dim>
					<dim>7</dim>
				</port>
			</output>
		</layer>
		<layer id="14" name="resnet_model/conv2d/Conv2D" type="Convolution" version="opset1">
			<data dilations="1,1" output_padding="0,0" pads_begin="3,3" pads_end="3,3" strides="2,2"/>
			<input>
				<port id="0">
					<dim>1</dim>
					<dim>3</dim>
					<dim>224</dim>
					<dim>224</dim>
				</port>
				<port id="1">
					<dim>64</dim>
					<dim>3</dim>
					<dim>7</dim>
					<dim>7</dim>
				</port>
			</input>
			<output>
				<port id="2" precision="FP16">
					<dim>1</dim>
					<dim>64</dim>
					<dim>112</dim>
					<dim>112</dim>
				</port>
			</output>
		</layer>
		<layer id="15" name="data_add_94829487/copy_const299_const" type="Const" version="opset1">
			<data element_type="f16" offset="19082" shape="1,64,1,1" size="128"/>
			<output>
				<port id="1" precision="FP16">
					<dim>1</dim>
					<dim>64</dim>
					<dim>1</dim>
					<dim>1</dim>
				</port>
			</output>
		</layer>
		<layer id="16" name="Add1_/Fused_Add_" type="Add" version="opset1">
			<input>
				<port id="0">
					<dim>1</dim>
					<dim>64</dim>
					<dim>112</dim>
					<dim>112</dim>
				</port>
				<port id="1">
					<dim>1</dim>
					<dim>64</dim>
					<dim>1</dim>
					<dim>1</dim>
				</port>
			</input>
			<output>
				<port id="2" precision="FP16">
					<dim>1</dim>
					<dim>64</dim>
					<dim>112</dim>
					<dim>112</dim>
				</port>
			</output>
		</layer>
		<layer id="17" name="resnet_model/Relu" type="ReLU" version="opset1">
			<input>
				<port id="0">
					<dim>1</dim>
					<dim>64</dim>
					<dim>112</dim>
					<dim>112</dim>
				</port>
			</input>
			<output>
				<port id="1" precision="FP16">
					<dim>1</dim>
					<dim>64</dim>
					<dim>112</dim>
					<dim>112</dim>
				</port>
			</output>
		</layer>
		<layer id="18" name="28972901_const" type="Const" version="opset1">
			<data element_type="f16" offset="19210" shape="" size="2"/>
			<output>
				<port id="1" precision="FP16"/>
			</output>
		</layer>
		<layer id="19" name="28982902_const" type="Const" version="opset1">
			<data element_type="f16" offset="19212" shape="" size="2"/>
			<output>
				<port id="1" precision="FP16"/>
			</output>
		</layer>
		<layer id="20" name="28992903_const" type="Const" version="opset1">
			<data element_type="f16" offset="19210" shape="" size="2"/>
			<output>
				<port id="1" precision="FP16"/>
			</output>
		</layer>
		<layer id="21" name="29002904_const" type="Const" version="opset1">
			<data element_type="f16" offset="19212" shape="" size="2"/>
			<output>
				<port id="1" precision="FP16"/>
			</output>
		</layer>
		<layer id="22" name="resnet_model/max_pooling2d/MaxPool/fq_input_0" type="FakeQuantize" version="opset1">
			<data levels="256"/>
			<input>
				<port id="0">
					<dim>1</dim>
					<dim>64</dim>
					<dim>112</dim>
					<dim>112</dim>
				</port>
				<port id="1"/>
				<port id="2"/>
				<port id="3"/>
				<port id="4"/>
			</input>
			<output>
				<port id="5" precision="FP16">
					<dim>1</dim>
					<dim>64</dim>
					<dim>112</dim>
					<dim>112</dim>
				</port>
			</output>
		</layer>
		<layer id="23" name="resnet_model/max_pooling2d/MaxPool" type="MaxPool" version="opset1">
			<data auto_pad="same_upper" kernel="3,3" pads_begin="0,0" pads_end="1,1" strides="2,2"/>
			<input>
				<port id="0">
					<dim>1</dim>
					<dim>64</dim>
					<dim>112</dim>
					<dim>112</dim>
				</port>
			</input>
			<output>
				<port id="1" precision="FP16">
					<dim>1</dim>
					<dim>64</dim>
					<dim>56</dim>
					<dim>56</dim>
				</port>
			</output>
		</layer>
		<layer id="24" name="Mul1_8329/Fused_Mul_1034610348_const303_const" type="Const" version="opset1">
			<data element_type="f16" offset="19214" shape="64,64,1,1" size="8192"/>
			<output>
				<port id="1" precision="FP16">
					<dim>64</dim>
					<dim>64</dim>
					<dim>1</dim>
					<dim>1</dim>
				</port>
			</output>
		</layer>
		<layer id="25" name="12611265_const" type="Const" version="opset1">
			<data element_type="f16" offset="27406" shape="64,1,1,1" size="128"/>
			<output>
				<port id="1" precision="FP16">
					<dim>64</dim>
					<dim>1</dim>
					<dim>1</dim>
					<dim>1</dim>
				</port>
			</output>
		</layer>
		<layer id="26" name="12621266_const" type="Const" version="opset1">
			<data element_type="f16" offset="27534" shape="64,1,1,1" size="128"/>
			<output>
				<port id="1" precision="FP16">
					<dim>64</dim>
					<dim>1</dim>
					<dim>1</dim>
					<dim>1</dim>
				</port>
			</output>
		</layer>
		<layer id="27" name="12631267_const" type="Const" version="opset1">
			<data element_type="f16" offset="27406" shape="64,1,1,1" size="128"/>
			<output>
				<port id="1" precision="FP16">
					<dim>64</dim>
					<dim>1</dim>
					<dim>1</dim>
					<dim>1</dim>
				</port>
			</output>
		</layer>
		<layer id="28" name="12641268_const" type="Const" version="opset1">
			<data element_type="f16" offset="27534" shape="64,1,1,1" size="128"/>
			<output>
				<port id="1" precision="FP16">
					<dim>64</dim>
					<dim>1</dim>
					<dim>1</dim>
					<dim>1</dim>
				</port>
			</output>
		</layer>
		<layer id="29" name="resnet_model/conv2d_2/Conv2D/fq_weights_1" type="FakeQuantize" version="opset1">
			<data levels="255"/>
			<input>
				<port id="0">
					<dim>64</dim>
					<dim>64</dim>
					<dim>1</dim>
					<dim>1</dim>
				</port>
				<port id="1">
					<dim>64</dim>
					<dim>1</dim>
					<dim>1</dim>
					<dim>1</dim>
				</port>
				<port id="2">
					<dim>64</dim>
					<dim>1</dim>
					<dim>1</dim>
					<dim>1</dim>
				</port>
				<port id="3">
					<dim>64</dim>
					<dim>1</dim>
					<dim>1</dim>
					<dim>1</dim>
				</port>
				<port id="4">
					<dim>64</dim>
					<dim>1</dim>
					<dim>1</dim>
					<dim>1</dim>
				</port>
			</input>
			<output>
				<port id="5" precision="FP16">
					<dim>64</dim>
					<dim>64</dim>
					<dim>1</dim>
					<dim>1</dim>
				</port>
			</output>
		</layer>
		<layer id="30" name="resnet_model/conv2d_2/Conv2D" type="Convolution" version="opset1">
			<data auto_pad="same_upper" dilations="1,1" output_padding="0,0" pads_begin="0,0" pads_end="0,0" strides="1,1"/>
			<input>
				<port id="0">
					<dim>1</dim>
					<dim>64</dim>
					<dim>56</dim>
					<dim>56</dim>
				</port>
				<port id="1">
					<dim>64</dim>
					<dim>64</dim>
					<dim>1</dim>
					<dim>1</dim>
				</port>
			</input>
			<output>
				<port id="2" precision="FP16">
					<dim>1</dim>
					<dim>64</dim>
					<dim>56</dim>
					<dim>56</dim>
				</port>
			</output>
		</layer>
		<layer id="31" name="data_add_94909495/copy_const305_const" type="Const" version="opset1">
			<data element_type="f16" offset="27662" shape="1,64,1,1" size="128"/>
			<output>
				<port id="1" precision="FP16">
					<dim>1</dim>
					<dim>64</dim>
					<dim>1</dim>
					<dim>1</dim>
				</port>
			</output>
		</layer>
		<layer id="32" name="Add1_8330/Fused_Add_" type="Add" version="opset1">
			<input>
				<port id="0">
					<dim>1</dim>
					<dim>64</dim>
					<dim>56</dim>
					<dim>56</dim>
				</port>
				<port id="1">
					<dim>1</dim>
					<dim>64</dim>
					<dim>1</dim>
					<dim>1</dim>
				</port>
			</input>
			<output>
				<port id="2" precision="FP16">
					<dim>1</dim>
					<dim>64</dim>
					<dim>56</dim>
					<dim>56</dim>
				</port>
			</output>
		</layer>
		<layer id="33" name="resnet_model/Relu_1" type="ReLU" version="opset1">
			<input>
				<port id="0">
					<dim>1</dim>
					<dim>64</dim>
					<dim>56</dim>
					<dim>56</dim>
				</port>
			</input>
			<output>
				<port id="1" precision="FP16">
					<dim>1</dim>
					<dim>64</dim>
					<dim>56</dim>
					<dim>56</dim>
				</port>
			</output>
		</layer>
		<layer id="34" name="14111415_const" type="Const" version="opset1">
			<data element_type="f16" offset="19210" shape="" size="2"/>
			<output>
				<port id="1" precision="FP16"/>
			</output>
		</layer>
		<layer id="35" name="14121416_const" type="Const" version="opset1">
			<data element_type="f16" offset="27790" shape="" size="2"/>
			<output>
				<port id="1" precision="FP16"/>
			</output>
		</layer>
		<layer id="36" name="14131417_const" type="Const" version="opset1">
			<data element_type="f16" offset="19210" shape="" size="2"/>
			<output>
				<port id="1" precision="FP16"/>
			</output>
		</layer>
		<layer id="37" name="14141418_const" type="Const" version="opset1">
			<data element_type="f16" offset="27790" shape="" size="2"/>
			<output>
				<port id="1" precision="FP16"/>
			</output>
		</layer>
		<layer id="38" name="resnet_model/conv2d_3/Conv2D/fq_input_0" type="FakeQuantize" version="opset1">
			<data levels="256"/>
			<input>
				<port id="0">
					<dim>1</dim>
					<dim>64</dim>
					<dim>56</dim>
					<dim>56</dim>
				</port>
				<port id="1"/>
				<port id="2"/>
				<port id="3"/>
				<port id="4"/>
			</input>
			<output>
				<port id="5" precision="FP16">
					<dim>1</dim>
					<dim>64</dim>
					<dim>56</dim>
					<dim>56</dim>
				</port>
			</output>
		</layer>
		<layer id="39" name="Mul1_8341/Fused_Mul_1035010352_const308_const" type="Const" version="opset1">
			<data element_type="f16" offset="27792" shape="64,64,3,3" size="73728"/>
			<output>
				<port id="1" precision="FP16">
					<dim>64</dim>
					<dim>64</dim>
					<dim>3</dim>
					<dim>3</dim>
				</port>
			</output>
		</layer>
		<layer id="40" name="14211425_const" type="Const" version="opset1">
			<data element_type="f16" offset="101520" shape="64,1,1,1" size="128"/>
			<output>
				<port id="1" precision="FP16">
					<dim>64</dim>
					<dim>1</dim>
					<dim>1</dim>
					<dim>1</dim>
				</port>
			</output>
		</layer>
		<layer id="41" name="14221426_const" type="Const" version="opset1">
			<data element_type="f16" offset="101648" shape="64,1,1,1" size="128"/>
			<output>
				<port id="1" precision="FP16">
					<dim>64</dim>
					<dim>1</dim>
					<dim>1</dim>
					<dim>1</dim>
				</port>
			</output>
		</layer>
		<layer id="42" name="14231427_const" type="Const" version="opset1">
			<data element_type="f16" offset="101520" shape="64,1,1,1" size="128"/>
			<output>
				<port id="1" precision="FP16">
					<dim>64</dim>
					<dim>1</dim>
					<dim>1</dim>
					<dim>1</dim>
				</port>
			</output>
		</layer>
		<layer id="43" name="14241428_const" type="Const" version="opset1">
			<data element_type="f16" offset="101648" shape="64,1,1,1" size="128"/>
			<output>
				<port id="1" precision="FP16">
					<dim>64</dim>
					<dim>1</dim>
					<dim>1</dim>
					<dim>1</dim>
				</port>
			</output>
		</layer>
		<layer id="44" name="resnet_model/conv2d_3/Conv2D/fq_weights_1" type="FakeQuantize" version="opset1">
			<data levels="255"/>
			<input>
				<port id="0">
					<dim>64</dim>
					<dim>64</dim>
					<dim>3</dim>
					<dim>3</dim>
				</port>
				<port id="1">
					<dim>64</dim>
					<dim>1</dim>
					<dim>1</dim>
					<dim>1</dim>
				</port>
				<port id="2">
					<dim>64</dim>
					<dim>1</dim>
					<dim>1</dim>
					<dim>1</dim>
				</port>
				<port id="3">
					<dim>64</dim>
					<dim>1</dim>
					<dim>1</dim>
					<dim>1</dim>
				</port>
				<port id="4">
					<dim>64</dim>
					<dim>1</dim>
					<dim>1</dim>
					<dim>1</dim>
				</port>
			</input>
			<output>
				<port id="5" precision="FP16">
					<dim>64</dim>
					<dim>64</dim>
					<dim>3</dim>
					<dim>3</dim>
				</port>
			</output>
		</layer>
		<layer id="45" name="resnet_model/conv2d_3/Conv2D" type="Convolution" version="opset1">
			<data auto_pad="same_upper" dilations="1,1" output_padding="0,0" pads_begin="1,1" pads_end="1,1" strides="1,1"/>
			<input>
				<port id="0">
					<dim>1</dim>
					<dim>64</dim>
					<dim>56</dim>
					<dim>56</dim>
				</port>
				<port id="1">
					<dim>64</dim>
					<dim>64</dim>
					<dim>3</dim>
					<dim>3</dim>
				</port>
			</input>
			<output>
				<port id="2" precision="FP16">
					<dim>1</dim>
					<dim>64</dim>
					<dim>56</dim>
					<dim>56</dim>
				</port>
			</output>
		</layer>
		<layer id="46" name="data_add_94989503/copy_const310_const" type="Const" version="opset1">
			<data element_type="f16" offset="101776" shape="1,64,1,1" size="128"/>
			<output>
				<port id="1" precision="FP16">
					<dim>1</dim>
					<dim>64</dim>
					<dim>1</dim>
					<dim>1</dim>
				</port>
			</output>
		</layer>
		<layer id="47" name="Add1_8342/Fused_Add_" type="Add" version="opset1">
			<input>
				<port id="0">
					<dim>1</dim>
					<dim>64</dim>
					<dim>56</dim>
					<dim>56</dim>
				</port>
				<port id="1">
					<dim>1</dim>
					<dim>64</dim>
					<dim>1</dim>
					<dim>1</dim>
				</port>
			</input>
			<output>
				<port id="2" precision="FP16">
					<dim>1</dim>
					<dim>64</dim>
					<dim>56</dim>
					<dim>56</dim>
				</port>
			</output>
		</layer>
		<layer id="48" name="resnet_model/Relu_2" type="ReLU" version="opset1">
			<input>
				<port id="0">
					<dim>1</dim>
					<dim>64</dim>
					<dim>56</dim>
					<dim>56</dim>
				</port>
			</input>
			<output>
				<port id="1" precision="FP16">
					<dim>1</dim>
					<dim>64</dim>
					<dim>56</dim>
					<dim>56</dim>
				</port>
			</output>
		</layer>
		<layer id="49" name="19611965_const" type="Const" version="opset1">
			<data element_type="f16" offset="19210" shape="" size="2"/>
			<output>
				<port id="1" precision="FP16"/>
			</output>
		</layer>
		<layer id="50" name="19621966_const" type="Const" version="opset1">
			<data element_type="f16" offset="101904" shape="" size="2"/>
			<output>
				<port id="1" precision="FP16"/>
			</output>
		</layer>
		<layer id="51" name="19631967_const" type="Const" version="opset1">
			<data element_type="f16" offset="19210" shape="" size="2"/>
			<output>
				<port id="1" precision="FP16"/>
			</output>
		</layer>
		<layer id="52" name="19641968_const" type="Const" version="opset1">
			<data element_type="f16" offset="101904" shape="" size="2"/>
			<output>
				<port id="1" precision="FP16"/>
			</output>
		</layer>
		<layer id="53" name="resnet_model/conv2d_4/Conv2D/fq_input_0" type="FakeQuantize" version="opset1">
			<data levels="256"/>
			<input>
				<port id="0">
					<dim>1</dim>
					<dim>64</dim>
					<dim>56</dim>
					<dim>56</dim>
				</port>
				<port id="1"/>
				<port id="2"/>
				<port id="3"/>
				<port id="4"/>
			</input>
			<output>
				<port id="5" precision="FP16">
					<dim>1</dim>
					<dim>64</dim>
					<dim>56</dim>
					<dim>56</dim>
				</port>
			</output>
		</layer>
		<layer id="54" name="Mul1_8353/Fused_Mul_1035410356_const313_const" type="Const" version="opset1">
			<data element_type="f16" offset="101906" shape="256,64,1,1" size="32768"/>
			<output>
				<port id="1" precision="FP16">
					<dim>256</dim>
					<dim>64</dim>
					<dim>1</dim>
					<dim>1</dim>
				</port>
			</output>
		</layer>
		<layer id="55" name="19711975_const" type="Const" version="opset1">
			<data element_type="f16" offset="134674" shape="256,1,1,1" size="512"/>
			<output>
				<port id="1" precision="FP16">
					<dim>256</dim>
					<dim>1</dim>
					<dim>1</dim>
					<dim>1</dim>
				</port>
			</output>
		</layer>
		<layer id="56" name="19721976_const" type="Const" version="opset1">
			<data element_type="f16" offset="135186" shape="256,1,1,1" size="512"/>
			<output>
				<port id="1" precision="FP16">
					<dim>256</dim>
					<dim>1</dim>
					<dim>1</dim>
					<dim>1</dim>
				</port>
			</output>
		</layer>
		<layer id="57" name="19731977_const" type="Const" version="opset1">
			<data element_type="f16" offset="134674" shape="256,1,1,1" size="512"/>
			<output>
				<port id="1" precision="FP16">
					<dim>256</dim>
					<dim>1</dim>
					<dim>1</dim>
					<dim>1</dim>
				</port>
			</output>
		</layer>
		<layer id="58" name="19741978_const" type="Const" version="opset1">
			<data element_type="f16" offset="135186" shape="256,1,1,1" size="512"/>
			<output>
				<port id="1" precision="FP16">
					<dim>256</dim>
					<dim>1</dim>
					<dim>1</dim>
					<dim>1</dim>
				</port>
			</output>
		</layer>
		<layer id="59" name="resnet_model/conv2d_4/Conv2D/fq_weights_1" type="FakeQuantize" version="opset1">
			<data levels="255"/>
			<input>
				<port id="0">
					<dim>256</dim>
					<dim>64</dim>
					<dim>1</dim>
					<dim>1</dim>
				</port>
				<port id="1">
					<dim>256</dim>
					<dim>1</dim>
					<dim>1</dim>
					<dim>1</dim>
				</port>
				<port id="2">
					<dim>256</dim>
					<dim>1</dim>
					<dim>1</dim>
					<dim>1</dim>
				</port>
				<port id="3">
					<dim>256</dim>
					<dim>1</dim>
					<dim>1</dim>
					<dim>1</dim>
				</port>
				<port id="4">
					<dim>256</dim>
					<dim>1</dim>
					<dim>1</dim>
					<dim>1</dim>
				</port>
			</input>
			<output>
				<port id="5" precision="FP16">
					<dim>256</dim>
					<dim>64</dim>
					<dim>1</dim>
					<dim>1</dim>
				</port>
			</output>
		</layer>
		<layer id="60" name="resnet_model/conv2d_4/Conv2D" type="Convolution" version="opset1">
			<data auto_pad="same_upper" dilations="1,1" output_padding="0,0" pads_begin="0,0" pads_end="0,0" strides="1,1"/>
			<input>
				<port id="0">
					<dim>1</dim>
					<dim>64</dim>
					<dim>56</dim>
					<dim>56</dim>
				</port>
				<port id="1">
					<dim>256</dim>
					<dim>64</dim>
					<dim>1</dim>
					<dim>1</dim>
				</port>
			</input>
			<output>
				<port id="2" precision="FP16">
					<dim>1</dim>
					<dim>256</dim>
					<dim>56</dim>
					<dim>56</dim>
				</port>
			</output>
		</layer>
		<layer id="61" name="data_add_95069511/copy_const315_const" type="Const" version="opset1">
			<data element_type="f16" offset="135698" shape="1,256,1,1" size="512"/>
			<output>
				<port id="1" precision="FP16">
					<dim>1</dim>
					<dim>256</dim>
					<dim>1</dim>
					<dim>1</dim>
				</port>
			</output>
		</layer>
		<layer id="62" name="Add1_8354/Fused_Add_" type="Add" version="opset1">
			<input>
				<port id="0">
					<dim>1</dim>
					<dim>256</dim>
					<dim>56</dim>
					<dim>56</dim>
				</port>
				<port id="1">
					<dim>1</dim>
					<dim>256</dim>
					<dim>1</dim>
					<dim>1</dim>
				</port>
			</input>
			<output>
				<port id="2" precision="FP16">
					<dim>1</dim>
					<dim>256</dim>
					<dim>56</dim>
					<dim>56</dim>
				</port>
			</output>
		</layer>
		<layer id="63" name="10711075_const" type="Const" version="opset1">
			<data element_type="f16" offset="136210" shape="" size="2"/>
			<output>
				<port id="1" precision="FP16"/>
			</output>
		</layer>
		<layer id="64" name="10721076_const" type="Const" version="opset1">
			<data element_type="f16" offset="136212" shape="" size="2"/>
			<output>
				<port id="1" precision="FP16"/>
			</output>
		</layer>
		<layer id="65" name="10731077_const" type="Const" version="opset1">
			<data element_type="f16" offset="136210" shape="" size="2"/>
			<output>
				<port id="1" precision="FP16"/>
			</output>
		</layer>
		<layer id="66" name="10741078_const" type="Const" version="opset1">
			<data element_type="f16" offset="136212" shape="" size="2"/>
			<output>
				<port id="1" precision="FP16"/>
			</output>
		</layer>
		<layer id="67" name="resnet_model/add/fq_input_0" type="FakeQuantize" version="opset1">
			<data levels="256"/>
			<input>
				<port id="0">
					<dim>1</dim>
					<dim>256</dim>
					<dim>56</dim>
					<dim>56</dim>
				</port>
				<port id="1"/>
				<port id="2"/>
				<port id="3"/>
				<port id="4"/>
			</input>
			<output>
				<port id="5" precision="FP16">
					<dim>1</dim>
					<dim>256</dim>
					<dim>56</dim>
					<dim>56</dim>
				</port>
			</output>
		</layer>
		<layer id="68" name="Mul1_8317/Fused_Mul_1035810360_const317_const" type="Const" version="opset1">
			<data element_type="f16" offset="136214" shape="256,64,1,1" size="32768"/>
			<output>
				<port id="1" precision="FP16">
					<dim>256</dim>
					<dim>64</dim>
					<dim>1</dim>
					<dim>1</dim>
				</port>
			</output>
		</layer>
		<layer id="69" name="15211525_const" type="Const" version="opset1">
			<data element_type="f16" offset="168982" shape="256,1,1,1" size="512"/>
			<output>
				<port id="1" precision="FP16">
					<dim>256</dim>
					<dim>1</dim>
					<dim>1</dim>
					<dim>1</dim>
				</port>
			</output>
		</layer>
		<layer id="70" name="15221526_const" type="Const" version="opset1">
			<data element_type="f16" offset="169494" shape="256,1,1,1" size="512"/>
			<output>
				<port id="1" precision="FP16">
					<dim>256</dim>
					<dim>1</dim>
					<dim>1</dim>
					<dim>1</dim>
				</port>
			</output>
		</layer>
		<layer id="71" name="15231527_const" type="Const" version="opset1">
			<data element_type="f16" offset="168982" shape="256,1,1,1" size="512"/>
			<output>
				<port id="1" precision="FP16">
					<dim>256</dim>
					<dim>1</dim>
					<dim>1</dim>
					<dim>1</dim>
				</port>
			</output>
		</layer>
		<layer id="72" name="15241528_const" type="Const" version="opset1">
			<data element_type="f16" offset="169494" shape="256,1,1,1" size="512"/>
			<output>
				<port id="1" precision="FP16">
					<dim>256</dim>
					<dim>1</dim>
					<dim>1</dim>
					<dim>1</dim>
				</port>
			</output>
		</layer>
		<layer id="73" name="resnet_model/conv2d_1/Conv2D/fq_weights_1" type="FakeQuantize" version="opset1">
			<data levels="255"/>
			<input>
				<port id="0">
					<dim>256</dim>
					<dim>64</dim>
					<dim>1</dim>
					<dim>1</dim>
				</port>
				<port id="1">
					<dim>256</dim>
					<dim>1</dim>
					<dim>1</dim>
					<dim>1</dim>
				</port>
				<port id="2">
					<dim>256</dim>
					<dim>1</dim>
					<dim>1</dim>
					<dim>1</dim>
				</port>
				<port id="3">
					<dim>256</dim>
					<dim>1</dim>
					<dim>1</dim>
					<dim>1</dim>
				</port>
				<port id="4">
					<dim>256</dim>
					<dim>1</dim>
					<dim>1</dim>
					<dim>1</dim>
				</port>
			</input>
			<output>
				<port id="5" precision="FP16">
					<dim>256</dim>
					<dim>64</dim>
					<dim>1</dim>
					<dim>1</dim>
				</port>
			</output>
		</layer>
		<layer id="74" name="resnet_model/conv2d_1/Conv2D" type="Convolution" version="opset1">
			<data auto_pad="same_upper" dilations="1,1" output_padding="0,0" pads_begin="0,0" pads_end="0,0" strides="1,1"/>
			<input>
				<port id="0">
					<dim>1</dim>
					<dim>64</dim>
					<dim>56</dim>
					<dim>56</dim>
				</port>
				<port id="1">
					<dim>256</dim>
					<dim>64</dim>
					<dim>1</dim>
					<dim>1</dim>
				</port>
			</input>
			<output>
				<port id="2" precision="FP16">
					<dim>1</dim>
					<dim>256</dim>
					<dim>56</dim>
					<dim>56</dim>
				</port>
			</output>
		</layer>
		<layer id="75" name="data_add_95149519/copy_const319_const" type="Const" version="opset1">
			<data element_type="f16" offset="170006" shape="1,256,1,1" size="512"/>
			<output>
				<port id="1" precision="FP16">
					<dim>1</dim>
					<dim>256</dim>
					<dim>1</dim>
					<dim>1</dim>
				</port>
			</output>
		</layer>
		<layer id="76" name="Add1_8318/Fused_Add_" type="Add" version="opset1">
			<input>
				<port id="0">
					<dim>1</dim>
					<dim>256</dim>
					<dim>56</dim>
					<dim>56</dim>
				</port>
				<port id="1">
					<dim>1</dim>
					<dim>256</dim>
					<dim>1</dim>
					<dim>1</dim>
				</port>
			</input>
			<output>
				<port id="2" precision="FP16">
					<dim>1</dim>
					<dim>256</dim>
					<dim>56</dim>
					<dim>56</dim>
				</port>
			</output>
		</layer>
		<layer id="77" name="10811085_const" type="Const" version="opset1">
			<data element_type="f16" offset="170518" shape="" size="2"/>
			<output>
				<port id="1" precision="FP16"/>
			</output>
		</layer>
		<layer id="78" name="10821086_const" type="Const" version="opset1">
			<data element_type="f16" offset="170520" shape="" size="2"/>
			<output>
				<port id="1" precision="FP16"/>
			</output>
		</layer>
		<layer id="79" name="10831087_const" type="Const" version="opset1">
			<data element_type="f16" offset="170518" shape="" size="2"/>
			<output>
				<port id="1" precision="FP16"/>
			</output>
		</layer>
		<layer id="80" name="10841088_const" type="Const" version="opset1">
			<data element_type="f16" offset="170520" shape="" size="2"/>
			<output>
				<port id="1" precision="FP16"/>
			</output>
		</layer>
		<layer id="81" name="resnet_model/add/fq_input_1" type="FakeQuantize" version="opset1">
			<data levels="256"/>
			<input>
				<port id="0">
					<dim>1</dim>
					<dim>256</dim>
					<dim>56</dim>
					<dim>56</dim>
				</port>
				<port id="1"/>
				<port id="2"/>
				<port id="3"/>
				<port id="4"/>
			</input>
			<output>
				<port id="5" precision="FP16">
					<dim>1</dim>
					<dim>256</dim>
					<dim>56</dim>
					<dim>56</dim>
				</port>
			</output>
		</layer>
		<layer id="82" name="resnet_model/add" type="Add" version="opset1">
			<input>
				<port id="0">
					<dim>1</dim>
					<dim>256</dim>
					<dim>56</dim>
					<dim>56</dim>
				</port>
				<port id="1">
					<dim>1</dim>
					<dim>256</dim>
					<dim>56</dim>
					<dim>56</dim>
				</port>
			</input>
			<output>
				<port id="2" precision="FP16">
					<dim>1</dim>
					<dim>256</dim>
					<dim>56</dim>
					<dim>56</dim>
				</port>
			</output>
		</layer>
		<layer id="83" name="resnet_model/Relu_3" type="ReLU" version="opset1">
			<input>
				<port id="0">
					<dim>1</dim>
					<dim>256</dim>
					<dim>56</dim>
					<dim>56</dim>
				</port>
			</input>
			<output>
				<port id="1" precision="FP16">
					<dim>1</dim>
					<dim>256</dim>
					<dim>56</dim>
					<dim>56</dim>
				</port>
			</output>
		</layer>
		<layer id="84" name="13211325_const" type="Const" version="opset1">
			<data element_type="f16" offset="19210" shape="" size="2"/>
			<output>
				<port id="1" precision="FP16"/>
			</output>
		</layer>
		<layer id="85" name="13221326_const" type="Const" version="opset1">
			<data element_type="f16" offset="170522" shape="" size="2"/>
			<output>
				<port id="1" precision="FP16"/>
			</output>
		</layer>
		<layer id="86" name="13231327_const" type="Const" version="opset1">
			<data element_type="f16" offset="19210" shape="" size="2"/>
			<output>
				<port id="1" precision="FP16"/>
			</output>
		</layer>
		<layer id="87" name="13241328_const" type="Const" version="opset1">
			<data element_type="f16" offset="170522" shape="" size="2"/>
			<output>
				<port id="1" precision="FP16"/>
			</output>
		</layer>
		<layer id="88" name="resnet_model/add_1/fq_input_1" type="FakeQuantize" version="opset1">
			<data levels="256"/>
			<input>
				<port id="0">
					<dim>1</dim>
					<dim>256</dim>
					<dim>56</dim>
					<dim>56</dim>
				</port>
				<port id="1"/>
				<port id="2"/>
				<port id="3"/>
				<port id="4"/>
			</input>
			<output>
				<port id="5" precision="FP16">
					<dim>1</dim>
					<dim>256</dim>
					<dim>56</dim>
					<dim>56</dim>
				</port>
			</output>
		</layer>
		<layer id="89" name="Mul1_8365/Fused_Mul_1036210364_const323_const" type="Const" version="opset1">
			<data element_type="f16" offset="170524" shape="64,256,1,1" size="32768"/>
			<output>
				<port id="1" precision="FP16">
					<dim>64</dim>
					<dim>256</dim>
					<dim>1</dim>
					<dim>1</dim>
				</port>
			</output>
		</layer>
		<layer id="90" name="22112215_const" type="Const" version="opset1">
			<data element_type="f16" offset="203292" shape="64,1,1,1" size="128"/>
			<output>
				<port id="1" precision="FP16">
					<dim>64</dim>
					<dim>1</dim>
					<dim>1</dim>
					<dim>1</dim>
				</port>
			</output>
		</layer>
		<layer id="91" name="22122216_const" type="Const" version="opset1">
			<data element_type="f16" offset="203420" shape="64,1,1,1" size="128"/>
			<output>
				<port id="1" precision="FP16">
					<dim>64</dim>
					<dim>1</dim>
					<dim>1</dim>
					<dim>1</dim>
				</port>
			</output>
		</layer>
		<layer id="92" name="22132217_const" type="Const" version="opset1">
			<data element_type="f16" offset="203292" shape="64,1,1,1" size="128"/>
			<output>
				<port id="1" precision="FP16">
					<dim>64</dim>
					<dim>1</dim>
					<dim>1</dim>
					<dim>1</dim>
				</port>
			</output>
		</layer>
		<layer id="93" name="22142218_const" type="Const" version="opset1">
			<data element_type="f16" offset="203420" shape="64,1,1,1" size="128"/>
			<output>
				<port id="1" precision="FP16">
					<dim>64</dim>
					<dim>1</dim>
					<dim>1</dim>
					<dim>1</dim>
				</port>
			</output>
		</layer>
		<layer id="94" name="resnet_model/conv2d_5/Conv2D/fq_weights_1" type="FakeQuantize" version="opset1">
			<data levels="255"/>
			<input>
				<port id="0">
					<dim>64</dim>
					<dim>256</dim>
					<dim>1</dim>
					<dim>1</dim>
				</port>
				<port id="1">
					<dim>64</dim>
					<dim>1</dim>
					<dim>1</dim>
					<dim>1</dim>
				</port>
				<port id="2">
					<dim>64</dim>
					<dim>1</dim>
					<dim>1</dim>
					<dim>1</dim>
				</port>
				<port id="3">
					<dim>64</dim>
					<dim>1</dim>
					<dim>1</dim>
					<dim>1</dim>
				</port>
				<port id="4">
					<dim>64</dim>
					<dim>1</dim>
					<dim>1</dim>
					<dim>1</dim>
				</port>
			</input>
			<output>
				<port id="5" precision="FP16">
					<dim>64</dim>
					<dim>256</dim>
					<dim>1</dim>
					<dim>1</dim>
				</port>
			</output>
		</layer>
		<layer id="95" name="resnet_model/conv2d_5/Conv2D" type="Convolution" version="opset1">
			<data auto_pad="same_upper" dilations="1,1" output_padding="0,0" pads_begin="0,0" pads_end="0,0" strides="1,1"/>
			<input>
				<port id="0">
					<dim>1</dim>
					<dim>256</dim>
					<dim>56</dim>
					<dim>56</dim>
				</port>
				<port id="1">
					<dim>64</dim>
					<dim>256</dim>
					<dim>1</dim>
					<dim>1</dim>
				</port>
			</input>
			<output>
				<port id="2" precision="FP16">
					<dim>1</dim>
					<dim>64</dim>
					<dim>56</dim>
					<dim>56</dim>
				</port>
			</output>
		</layer>
		<layer id="96" name="data_add_95229527/copy_const325_const" type="Const" version="opset1">
			<data element_type="f16" offset="203548" shape="1,64,1,1" size="128"/>
			<output>
				<port id="1" precision="FP16">
					<dim>1</dim>
					<dim>64</dim>
					<dim>1</dim>
					<dim>1</dim>
				</port>
			</output>
		</layer>
		<layer id="97" name="Add1_8366/Fused_Add_" type="Add" version="opset1">
			<input>
				<port id="0">
					<dim>1</dim>
					<dim>64</dim>
					<dim>56</dim>
					<dim>56</dim>
				</port>
				<port id="1">
					<dim>1</dim>
					<dim>64</dim>
					<dim>1</dim>
					<dim>1</dim>
				</port>
			</input>
			<output>
				<port id="2" precision="FP16">
					<dim>1</dim>
					<dim>64</dim>
					<dim>56</dim>
					<dim>56</dim>
				</port>
			</output>
		</layer>
		<layer id="98" name="resnet_model/Relu_4" type="ReLU" version="opset1">
			<input>
				<port id="0">
					<dim>1</dim>
					<dim>64</dim>
					<dim>56</dim>
					<dim>56</dim>
				</port>
			</input>
			<output>
				<port id="1" precision="FP16">
					<dim>1</dim>
					<dim>64</dim>
					<dim>56</dim>
					<dim>56</dim>
				</port>
			</output>
		</layer>
		<layer id="99" name="19011905_const" type="Const" version="opset1">
			<data element_type="f16" offset="19210" shape="" size="2"/>
			<output>
				<port id="1" precision="FP16"/>
			</output>
		</layer>
		<layer id="100" name="19021906_const" type="Const" version="opset1">
			<data element_type="f16" offset="203676" shape="" size="2"/>
			<output>
				<port id="1" precision="FP16"/>
			</output>
		</layer>
		<layer id="101" name="19031907_const" type="Const" version="opset1">
			<data element_type="f16" offset="19210" shape="" size="2"/>
			<output>
				<port id="1" precision="FP16"/>
			</output>
		</layer>
		<layer id="102" name="19041908_const" type="Const" version="opset1">
			<data element_type="f16" offset="203676" shape="" size="2"/>
			<output>
				<port id="1" precision="FP16"/>
			</output>
		</layer>
		<layer id="103" name="resnet_model/conv2d_6/Conv2D/fq_input_0" type="FakeQuantize" version="opset1">
			<data levels="256"/>
			<input>
				<port id="0">
					<dim>1</dim>
					<dim>64</dim>
					<dim>56</dim>
					<dim>56</dim>
				</port>
				<port id="1"/>
				<port id="2"/>
				<port id="3"/>
				<port id="4"/>
			</input>
			<output>
				<port id="5" precision="FP16">
					<dim>1</dim>
					<dim>64</dim>
					<dim>56</dim>
					<dim>56</dim>
				</port>
			</output>
		</layer>
		<layer id="104" name="Mul1_8377/Fused_Mul_1036610368_const328_const" type="Const" version="opset1">
			<data element_type="f16" offset="203678" shape="64,64,3,3" size="73728"/>
			<output>
				<port id="1" precision="FP16">
					<dim>64</dim>
					<dim>64</dim>
					<dim>3</dim>
					<dim>3</dim>
				</port>
			</output>
		</layer>
		<layer id="105" name="19111915_const" type="Const" version="opset1">
			<data element_type="f16" offset="277406" shape="64,1,1,1" size="128"/>
			<output>
				<port id="1" precision="FP16">
					<dim>64</dim>
					<dim>1</dim>
					<dim>1</dim>
					<dim>1</dim>
				</port>
			</output>
		</layer>
		<layer id="106" name="19121916_const" type="Const" version="opset1">
			<data element_type="f16" offset="277534" shape="64,1,1,1" size="128"/>
			<output>
				<port id="1" precision="FP16">
					<dim>64</dim>
					<dim>1</dim>
					<dim>1</dim>
					<dim>1</dim>
				</port>
			</output>
		</layer>
		<layer id="107" name="19131917_const" type="Const" version="opset1">
			<data element_type="f16" offset="277406" shape="64,1,1,1" size="128"/>
			<output>
				<port id="1" precision="FP16">
					<dim>64</dim>
					<dim>1</dim>
					<dim>1</dim>
					<dim>1</dim>
				</port>
			</output>
		</layer>
		<layer id="108" name="19141918_const" type="Const" version="opset1">
			<data element_type="f16" offset="277534" shape="64,1,1,1" size="128"/>
			<output>
				<port id="1" precision="FP16">
					<dim>64</dim>
					<dim>1</dim>
					<dim>1</dim>
					<dim>1</dim>
				</port>
			</output>
		</layer>
		<layer id="109" name="resnet_model/conv2d_6/Conv2D/fq_weights_1" type="FakeQuantize" version="opset1">
			<data levels="255"/>
			<input>
				<port id="0">
					<dim>64</dim>
					<dim>64</dim>
					<dim>3</dim>
					<dim>3</dim>
				</port>
				<port id="1">
					<dim>64</dim>
					<dim>1</dim>
					<dim>1</dim>
					<dim>1</dim>
				</port>
				<port id="2">
					<dim>64</dim>
					<dim>1</dim>
					<dim>1</dim>
					<dim>1</dim>
				</port>
				<port id="3">
					<dim>64</dim>
					<dim>1</dim>
					<dim>1</dim>
					<dim>1</dim>
				</port>
				<port id="4">
					<dim>64</dim>
					<dim>1</dim>
					<dim>1</dim>
					<dim>1</dim>
				</port>
			</input>
			<output>
				<port id="5" precision="FP16">
					<dim>64</dim>
					<dim>64</dim>
					<dim>3</dim>
					<dim>3</dim>
				</port>
			</output>
		</layer>
		<layer id="110" name="resnet_model/conv2d_6/Conv2D" type="Convolution" version="opset1">
			<data auto_pad="same_upper" dilations="1,1" output_padding="0,0" pads_begin="1,1" pads_end="1,1" strides="1,1"/>
			<input>
				<port id="0">
					<dim>1</dim>
					<dim>64</dim>
					<dim>56</dim>
					<dim>56</dim>
				</port>
				<port id="1">
					<dim>64</dim>
					<dim>64</dim>
					<dim>3</dim>
					<dim>3</dim>
				</port>
			</input>
			<output>
				<port id="2" precision="FP16">
					<dim>1</dim>
					<dim>64</dim>
					<dim>56</dim>
					<dim>56</dim>
				</port>
			</output>
		</layer>
		<layer id="111" name="data_add_95309535/copy_const330_const" type="Const" version="opset1">
			<data element_type="f16" offset="277662" shape="1,64,1,1" size="128"/>
			<output>
				<port id="1" precision="FP16">
					<dim>1</dim>
					<dim>64</dim>
					<dim>1</dim>
					<dim>1</dim>
				</port>
			</output>
		</layer>
		<layer id="112" name="Add1_8378/Fused_Add_" type="Add" version="opset1">
			<input>
				<port id="0">
					<dim>1</dim>
					<dim>64</dim>
					<dim>56</dim>
					<dim>56</dim>
				</port>
				<port id="1">
					<dim>1</dim>
					<dim>64</dim>
					<dim>1</dim>
					<dim>1</dim>
				</port>
			</input>
			<output>
				<port id="2" precision="FP16">
					<dim>1</dim>
					<dim>64</dim>
					<dim>56</dim>
					<dim>56</dim>
				</port>
			</output>
		</layer>
		<layer id="113" name="resnet_model/Relu_5" type="ReLU" version="opset1">
			<input>
				<port id="0">
					<dim>1</dim>
					<dim>64</dim>
					<dim>56</dim>
					<dim>56</dim>
				</port>
			</input>
			<output>
				<port id="1" precision="FP16">
					<dim>1</dim>
					<dim>64</dim>
					<dim>56</dim>
					<dim>56</dim>
				</port>
			</output>
		</layer>
		<layer id="114" name="991995_const" type="Const" version="opset1">
			<data element_type="f16" offset="19210" shape="" size="2"/>
			<output>
				<port id="1" precision="FP16"/>
			</output>
		</layer>
		<layer id="115" name="992996_const" type="Const" version="opset1">
			<data element_type="f16" offset="27790" shape="" size="2"/>
			<output>
				<port id="1" precision="FP16"/>
			</output>
		</layer>
		<layer id="116" name="993997_const" type="Const" version="opset1">
			<data element_type="f16" offset="19210" shape="" size="2"/>
			<output>
				<port id="1" precision="FP16"/>
			</output>
		</layer>
		<layer id="117" name="994998_const" type="Const" version="opset1">
			<data element_type="f16" offset="27790" shape="" size="2"/>
			<output>
				<port id="1" precision="FP16"/>
			</output>
		</layer>
		<layer id="118" name="resnet_model/conv2d_7/Conv2D/fq_input_0" type="FakeQuantize" version="opset1">
			<data levels="256"/>
			<input>
				<port id="0">
					<dim>1</dim>
					<dim>64</dim>
					<dim>56</dim>
					<dim>56</dim>
				</port>
				<port id="1"/>
				<port id="2"/>
				<port id="3"/>
				<port id="4"/>
			</input>
			<output>
				<port id="5" precision="FP16">
					<dim>1</dim>
					<dim>64</dim>
					<dim>56</dim>
					<dim>56</dim>
				</port>
			</output>
		</layer>
		<layer id="119" name="Mul1_8389/Fused_Mul_1037010372_const333_const" type="Const" version="opset1">
			<data element_type="f16" offset="277790" shape="256,64,1,1" size="32768"/>
			<output>
				<port id="1" precision="FP16">
					<dim>256</dim>
					<dim>64</dim>
					<dim>1</dim>
					<dim>1</dim>
				</port>
			</output>
		</layer>
		<layer id="120" name="10011005_const" type="Const" version="opset1">
			<data element_type="f16" offset="310558" shape="256,1,1,1" size="512"/>
			<output>
				<port id="1" precision="FP16">
					<dim>256</dim>
					<dim>1</dim>
					<dim>1</dim>
					<dim>1</dim>
				</port>
			</output>
		</layer>
		<layer id="121" name="10021006_const" type="Const" version="opset1">
			<data element_type="f16" offset="311070" shape="256,1,1,1" size="512"/>
			<output>
				<port id="1" precision="FP16">
					<dim>256</dim>
					<dim>1</dim>
					<dim>1</dim>
					<dim>1</dim>
				</port>
			</output>
		</layer>
		<layer id="122" name="10031007_const" type="Const" version="opset1">
			<data element_type="f16" offset="310558" shape="256,1,1,1" size="512"/>
			<output>
				<port id="1" precision="FP16">
					<dim>256</dim>
					<dim>1</dim>
					<dim>1</dim>
					<dim>1</dim>
				</port>
			</output>
		</layer>
		<layer id="123" name="10041008_const" type="Const" version="opset1">
			<data element_type="f16" offset="311070" shape="256,1,1,1" size="512"/>
			<output>
				<port id="1" precision="FP16">
					<dim>256</dim>
					<dim>1</dim>
					<dim>1</dim>
					<dim>1</dim>
				</port>
			</output>
		</layer>
		<layer id="124" name="resnet_model/conv2d_7/Conv2D/fq_weights_1" type="FakeQuantize" version="opset1">
			<data levels="255"/>
			<input>
				<port id="0">
					<dim>256</dim>
					<dim>64</dim>
					<dim>1</dim>
					<dim>1</dim>
				</port>
				<port id="1">
					<dim>256</dim>
					<dim>1</dim>
					<dim>1</dim>
					<dim>1</dim>
				</port>
				<port id="2">
					<dim>256</dim>
					<dim>1</dim>
					<dim>1</dim>
					<dim>1</dim>
				</port>
				<port id="3">
					<dim>256</dim>
					<dim>1</dim>
					<dim>1</dim>
					<dim>1</dim>
				</port>
				<port id="4">
					<dim>256</dim>
					<dim>1</dim>
					<dim>1</dim>
					<dim>1</dim>
				</port>
			</input>
			<output>
				<port id="5" precision="FP16">
					<dim>256</dim>
					<dim>64</dim>
					<dim>1</dim>
					<dim>1</dim>
				</port>
			</output>
		</layer>
		<layer id="125" name="resnet_model/conv2d_7/Conv2D" type="Convolution" version="opset1">
			<data auto_pad="same_upper" dilations="1,1" output_padding="0,0" pads_begin="0,0" pads_end="0,0" strides="1,1"/>
			<input>
				<port id="0">
					<dim>1</dim>
					<dim>64</dim>
					<dim>56</dim>
					<dim>56</dim>
				</port>
				<port id="1">
					<dim>256</dim>
					<dim>64</dim>
					<dim>1</dim>
					<dim>1</dim>
				</port>
			</input>
			<output>
				<port id="2" precision="FP16">
					<dim>1</dim>
					<dim>256</dim>
					<dim>56</dim>
					<dim>56</dim>
				</port>
			</output>
		</layer>
		<layer id="126" name="data_add_95389543/copy_const335_const" type="Const" version="opset1">
			<data element_type="f16" offset="311582" shape="1,256,1,1" size="512"/>
			<output>
				<port id="1" precision="FP16">
					<dim>1</dim>
					<dim>256</dim>
					<dim>1</dim>
					<dim>1</dim>
				</port>
			</output>
		</layer>
		<layer id="127" name="Add1_8390/Fused_Add_" type="Add" version="opset1">
			<input>
				<port id="0">
					<dim>1</dim>
					<dim>256</dim>
					<dim>56</dim>
					<dim>56</dim>
				</port>
				<port id="1">
					<dim>1</dim>
					<dim>256</dim>
					<dim>1</dim>
					<dim>1</dim>
				</port>
			</input>
			<output>
				<port id="2" precision="FP16">
					<dim>1</dim>
					<dim>256</dim>
					<dim>56</dim>
					<dim>56</dim>
				</port>
			</output>
		</layer>
		<layer id="128" name="13111315_const" type="Const" version="opset1">
			<data element_type="f16" offset="312094" shape="" size="2"/>
			<output>
				<port id="1" precision="FP16"/>
			</output>
		</layer>
		<layer id="129" name="13121316_const" type="Const" version="opset1">
			<data element_type="f16" offset="312096" shape="" size="2"/>
			<output>
				<port id="1" precision="FP16"/>
			</output>
		</layer>
		<layer id="130" name="13131317_const" type="Const" version="opset1">
			<data element_type="f16" offset="312094" shape="" size="2"/>
			<output>
				<port id="1" precision="FP16"/>
			</output>
		</layer>
		<layer id="131" name="13141318_const" type="Const" version="opset1">
			<data element_type="f16" offset="312096" shape="" size="2"/>
			<output>
				<port id="1" precision="FP16"/>
			</output>
		</layer>
		<layer id="132" name="resnet_model/add_1/fq_input_0" type="FakeQuantize" version="opset1">
			<data levels="256"/>
			<input>
				<port id="0">
					<dim>1</dim>
					<dim>256</dim>
					<dim>56</dim>
					<dim>56</dim>
				</port>
				<port id="1"/>
				<port id="2"/>
				<port id="3"/>
				<port id="4"/>
			</input>
			<output>
				<port id="5" precision="FP16">
					<dim>1</dim>
					<dim>256</dim>
					<dim>56</dim>
					<dim>56</dim>
				</port>
			</output>
		</layer>
		<layer id="133" name="resnet_model/add_1" type="Add" version="opset1">
			<input>
				<port id="0">
					<dim>1</dim>
					<dim>256</dim>
					<dim>56</dim>
					<dim>56</dim>
				</port>
				<port id="1">
					<dim>1</dim>
					<dim>256</dim>
					<dim>56</dim>
					<dim>56</dim>
				</port>
			</input>
			<output>
				<port id="2" precision="FP16">
					<dim>1</dim>
					<dim>256</dim>
					<dim>56</dim>
					<dim>56</dim>
				</port>
			</output>
		</layer>
		<layer id="134" name="resnet_model/Relu_6" type="ReLU" version="opset1">
			<input>
				<port id="0">
					<dim>1</dim>
					<dim>256</dim>
					<dim>56</dim>
					<dim>56</dim>
				</port>
			</input>
			<output>
				<port id="1" precision="FP16">
					<dim>1</dim>
					<dim>256</dim>
					<dim>56</dim>
					<dim>56</dim>
				</port>
			</output>
		</layer>
		<layer id="135" name="21912195_const" type="Const" version="opset1">
			<data element_type="f16" offset="19210" shape="" size="2"/>
			<output>
				<port id="1" precision="FP16"/>
			</output>
		</layer>
		<layer id="136" name="21922196_const" type="Const" version="opset1">
			<data element_type="f16" offset="312098" shape="" size="2"/>
			<output>
				<port id="1" precision="FP16"/>
			</output>
		</layer>
		<layer id="137" name="21932197_const" type="Const" version="opset1">
			<data element_type="f16" offset="19210" shape="" size="2"/>
			<output>
				<port id="1" precision="FP16"/>
			</output>
		</layer>
		<layer id="138" name="21942198_const" type="Const" version="opset1">
			<data element_type="f16" offset="312098" shape="" size="2"/>
			<output>
				<port id="1" precision="FP16"/>
			</output>
		</layer>
		<layer id="139" name="resnet_model/add_2/fq_input_1" type="FakeQuantize" version="opset1">
			<data levels="256"/>
			<input>
				<port id="0">
					<dim>1</dim>
					<dim>256</dim>
					<dim>56</dim>
					<dim>56</dim>
				</port>
				<port id="1"/>
				<port id="2"/>
				<port id="3"/>
				<port id="4"/>
			</input>
			<output>
				<port id="5" precision="FP16">
					<dim>1</dim>
					<dim>256</dim>
					<dim>56</dim>
					<dim>56</dim>
				</port>
			</output>
		</layer>
		<layer id="140" name="Mul1_8401/Fused_Mul_1037410376_const339_const" type="Const" version="opset1">
			<data element_type="f16" offset="312100" shape="64,256,1,1" size="32768"/>
			<output>
				<port id="1" precision="FP16">
					<dim>64</dim>
					<dim>256</dim>
					<dim>1</dim>
					<dim>1</dim>
				</port>
			</output>
		</layer>
		<layer id="141" name="841845_const" type="Const" version="opset1">
			<data element_type="f16" offset="344868" shape="64,1,1,1" size="128"/>
			<output>
				<port id="1" precision="FP16">
					<dim>64</dim>
					<dim>1</dim>
					<dim>1</dim>
					<dim>1</dim>
				</port>
			</output>
		</layer>
		<layer id="142" name="842846_const" type="Const" version="opset1">
			<data element_type="f16" offset="344996" shape="64,1,1,1" size="128"/>
			<output>
				<port id="1" precision="FP16">
					<dim>64</dim>
					<dim>1</dim>
					<dim>1</dim>
					<dim>1</dim>
				</port>
			</output>
		</layer>
		<layer id="143" name="843847_const" type="Const" version="opset1">
			<data element_type="f16" offset="344868" shape="64,1,1,1" size="128"/>
			<output>
				<port id="1" precision="FP16">
					<dim>64</dim>
					<dim>1</dim>
					<dim>1</dim>
					<dim>1</dim>
				</port>
			</output>
		</layer>
		<layer id="144" name="844848_const" type="Const" version="opset1">
			<data element_type="f16" offset="344996" shape="64,1,1,1" size="128"/>
			<output>
				<port id="1" precision="FP16">
					<dim>64</dim>
					<dim>1</dim>
					<dim>1</dim>
					<dim>1</dim>
				</port>
			</output>
		</layer>
		<layer id="145" name="resnet_model/conv2d_8/Conv2D/fq_weights_1" type="FakeQuantize" version="opset1">
			<data levels="255"/>
			<input>
				<port id="0">
					<dim>64</dim>
					<dim>256</dim>
					<dim>1</dim>
					<dim>1</dim>
				</port>
				<port id="1">
					<dim>64</dim>
					<dim>1</dim>
					<dim>1</dim>
					<dim>1</dim>
				</port>
				<port id="2">
					<dim>64</dim>
					<dim>1</dim>
					<dim>1</dim>
					<dim>1</dim>
				</port>
				<port id="3">
					<dim>64</dim>
					<dim>1</dim>
					<dim>1</dim>
					<dim>1</dim>
				</port>
				<port id="4">
					<dim>64</dim>
					<dim>1</dim>
					<dim>1</dim>
					<dim>1</dim>
				</port>
			</input>
			<output>
				<port id="5" precision="FP16">
					<dim>64</dim>
					<dim>256</dim>
					<dim>1</dim>
					<dim>1</dim>
				</port>
			</output>
		</layer>
		<layer id="146" name="resnet_model/conv2d_8/Conv2D" type="Convolution" version="opset1">
			<data auto_pad="same_upper" dilations="1,1" output_padding="0,0" pads_begin="0,0" pads_end="0,0" strides="1,1"/>
			<input>
				<port id="0">
					<dim>1</dim>
					<dim>256</dim>
					<dim>56</dim>
					<dim>56</dim>
				</port>
				<port id="1">
					<dim>64</dim>
					<dim>256</dim>
					<dim>1</dim>
					<dim>1</dim>
				</port>
			</input>
			<output>
				<port id="2" precision="FP16">
					<dim>1</dim>
					<dim>64</dim>
					<dim>56</dim>
					<dim>56</dim>
				</port>
			</output>
		</layer>
		<layer id="147" name="data_add_95469551/copy_const341_const" type="Const" version="opset1">
			<data element_type="f16" offset="345124" shape="1,64,1,1" size="128"/>
			<output>
				<port id="1" precision="FP16">
					<dim>1</dim>
					<dim>64</dim>
					<dim>1</dim>
					<dim>1</dim>
				</port>
			</output>
		</layer>
		<layer id="148" name="Add1_8402/Fused_Add_" type="Add" version="opset1">
			<input>
				<port id="0">
					<dim>1</dim>
					<dim>64</dim>
					<dim>56</dim>
					<dim>56</dim>
				</port>
				<port id="1">
					<dim>1</dim>
					<dim>64</dim>
					<dim>1</dim>
					<dim>1</dim>
				</port>
			</input>
			<output>
				<port id="2" precision="FP16">
					<dim>1</dim>
					<dim>64</dim>
					<dim>56</dim>
					<dim>56</dim>
				</port>
			</output>
		</layer>
		<layer id="149" name="resnet_model/Relu_7" type="ReLU" version="opset1">
			<input>
				<port id="0">
					<dim>1</dim>
					<dim>64</dim>
					<dim>56</dim>
					<dim>56</dim>
				</port>
			</input>
			<output>
				<port id="1" precision="FP16">
					<dim>1</dim>
					<dim>64</dim>
					<dim>56</dim>
					<dim>56</dim>
				</port>
			</output>
		</layer>
		<layer id="150" name="16111615_const" type="Const" version="opset1">
			<data element_type="f16" offset="19210" shape="" size="2"/>
			<output>
				<port id="1" precision="FP16"/>
			</output>
		</layer>
		<layer id="151" name="16121616_const" type="Const" version="opset1">
			<data element_type="f16" offset="345252" shape="" size="2"/>
			<output>
				<port id="1" precision="FP16"/>
			</output>
		</layer>
		<layer id="152" name="16131617_const" type="Const" version="opset1">
			<data element_type="f16" offset="19210" shape="" size="2"/>
			<output>
				<port id="1" precision="FP16"/>
			</output>
		</layer>
		<layer id="153" name="16141618_const" type="Const" version="opset1">
			<data element_type="f16" offset="345252" shape="" size="2"/>
			<output>
				<port id="1" precision="FP16"/>
			</output>
		</layer>
		<layer id="154" name="resnet_model/conv2d_9/Conv2D/fq_input_0" type="FakeQuantize" version="opset1">
			<data levels="256"/>
			<input>
				<port id="0">
					<dim>1</dim>
					<dim>64</dim>
					<dim>56</dim>
					<dim>56</dim>
				</port>
				<port id="1"/>
				<port id="2"/>
				<port id="3"/>
				<port id="4"/>
			</input>
			<output>
				<port id="5" precision="FP16">
					<dim>1</dim>
					<dim>64</dim>
					<dim>56</dim>
					<dim>56</dim>
				</port>
			</output>
		</layer>
		<layer id="155" name="Mul1_8413/Fused_Mul_1037810380_const344_const" type="Const" version="opset1">
			<data element_type="f16" offset="345254" shape="64,64,3,3" size="73728"/>
			<output>
				<port id="1" precision="FP16">
					<dim>64</dim>
					<dim>64</dim>
					<dim>3</dim>
					<dim>3</dim>
				</port>
			</output>
		</layer>
		<layer id="156" name="16211625_const" type="Const" version="opset1">
			<data element_type="f16" offset="418982" shape="64,1,1,1" size="128"/>
			<output>
				<port id="1" precision="FP16">
					<dim>64</dim>
					<dim>1</dim>
					<dim>1</dim>
					<dim>1</dim>
				</port>
			</output>
		</layer>
		<layer id="157" name="16221626_const" type="Const" version="opset1">
			<data element_type="f16" offset="419110" shape="64,1,1,1" size="128"/>
			<output>
				<port id="1" precision="FP16">
					<dim>64</dim>
					<dim>1</dim>
					<dim>1</dim>
					<dim>1</dim>
				</port>
			</output>
		</layer>
		<layer id="158" name="16231627_const" type="Const" version="opset1">
			<data element_type="f16" offset="418982" shape="64,1,1,1" size="128"/>
			<output>
				<port id="1" precision="FP16">
					<dim>64</dim>
					<dim>1</dim>
					<dim>1</dim>
					<dim>1</dim>
				</port>
			</output>
		</layer>
		<layer id="159" name="16241628_const" type="Const" version="opset1">
			<data element_type="f16" offset="419110" shape="64,1,1,1" size="128"/>
			<output>
				<port id="1" precision="FP16">
					<dim>64</dim>
					<dim>1</dim>
					<dim>1</dim>
					<dim>1</dim>
				</port>
			</output>
		</layer>
		<layer id="160" name="resnet_model/conv2d_9/Conv2D/fq_weights_1" type="FakeQuantize" version="opset1">
			<data levels="255"/>
			<input>
				<port id="0">
					<dim>64</dim>
					<dim>64</dim>
					<dim>3</dim>
					<dim>3</dim>
				</port>
				<port id="1">
					<dim>64</dim>
					<dim>1</dim>
					<dim>1</dim>
					<dim>1</dim>
				</port>
				<port id="2">
					<dim>64</dim>
					<dim>1</dim>
					<dim>1</dim>
					<dim>1</dim>
				</port>
				<port id="3">
					<dim>64</dim>
					<dim>1</dim>
					<dim>1</dim>
					<dim>1</dim>
				</port>
				<port id="4">
					<dim>64</dim>
					<dim>1</dim>
					<dim>1</dim>
					<dim>1</dim>
				</port>
			</input>
			<output>
				<port id="5" precision="FP16">
					<dim>64</dim>
					<dim>64</dim>
					<dim>3</dim>
					<dim>3</dim>
				</port>
			</output>
		</layer>
		<layer id="161" name="resnet_model/conv2d_9/Conv2D" type="Convolution" version="opset1">
			<data auto_pad="same_upper" dilations="1,1" output_padding="0,0" pads_begin="1,1" pads_end="1,1" strides="1,1"/>
			<input>
				<port id="0">
					<dim>1</dim>
					<dim>64</dim>
					<dim>56</dim>
					<dim>56</dim>
				</port>
				<port id="1">
					<dim>64</dim>
					<dim>64</dim>
					<dim>3</dim>
					<dim>3</dim>
				</port>
			</input>
			<output>
				<port id="2" precision="FP16">
					<dim>1</dim>
					<dim>64</dim>
					<dim>56</dim>
					<dim>56</dim>
				</port>
			</output>
		</layer>
		<layer id="162" name="data_add_95549559/copy_const346_const" type="Const" version="opset1">
			<data element_type="f16" offset="419238" shape="1,64,1,1" size="128"/>
			<output>
				<port id="1" precision="FP16">
					<dim>1</dim>
					<dim>64</dim>
					<dim>1</dim>
					<dim>1</dim>
				</port>
			</output>
		</layer>
		<layer id="163" name="Add1_8414/Fused_Add_" type="Add" version="opset1">
			<input>
				<port id="0">
					<dim>1</dim>
					<dim>64</dim>
					<dim>56</dim>
					<dim>56</dim>
				</port>
				<port id="1">
					<dim>1</dim>
					<dim>64</dim>
					<dim>1</dim>
					<dim>1</dim>
				</port>
			</input>
			<output>
				<port id="2" precision="FP16">
					<dim>1</dim>
					<dim>64</dim>
					<dim>56</dim>
					<dim>56</dim>
				</port>
			</output>
		</layer>
		<layer id="164" name="resnet_model/Relu_8" type="ReLU" version="opset1">
			<input>
				<port id="0">
					<dim>1</dim>
					<dim>64</dim>
					<dim>56</dim>
					<dim>56</dim>
				</port>
			</input>
			<output>
				<port id="1" precision="FP16">
					<dim>1</dim>
					<dim>64</dim>
					<dim>56</dim>
					<dim>56</dim>
				</port>
			</output>
		</layer>
		<layer id="165" name="14311435_const" type="Const" version="opset1">
			<data element_type="f16" offset="19210" shape="" size="2"/>
			<output>
				<port id="1" precision="FP16"/>
			</output>
		</layer>
		<layer id="166" name="14321436_const" type="Const" version="opset1">
			<data element_type="f16" offset="419366" shape="" size="2"/>
			<output>
				<port id="1" precision="FP16"/>
			</output>
		</layer>
		<layer id="167" name="14331437_const" type="Const" version="opset1">
			<data element_type="f16" offset="19210" shape="" size="2"/>
			<output>
				<port id="1" precision="FP16"/>
			</output>
		</layer>
		<layer id="168" name="14341438_const" type="Const" version="opset1">
			<data element_type="f16" offset="419366" shape="" size="2"/>
			<output>
				<port id="1" precision="FP16"/>
			</output>
		</layer>
		<layer id="169" name="resnet_model/conv2d_10/Conv2D/fq_input_0" type="FakeQuantize" version="opset1">
			<data levels="256"/>
			<input>
				<port id="0">
					<dim>1</dim>
					<dim>64</dim>
					<dim>56</dim>
					<dim>56</dim>
				</port>
				<port id="1"/>
				<port id="2"/>
				<port id="3"/>
				<port id="4"/>
			</input>
			<output>
				<port id="5" precision="FP16">
					<dim>1</dim>
					<dim>64</dim>
					<dim>56</dim>
					<dim>56</dim>
				</port>
			</output>
		</layer>
		<layer id="170" name="Mul1_8425/Fused_Mul_1038210384_const349_const" type="Const" version="opset1">
			<data element_type="f16" offset="419368" shape="256,64,1,1" size="32768"/>
			<output>
				<port id="1" precision="FP16">
					<dim>256</dim>
					<dim>64</dim>
					<dim>1</dim>
					<dim>1</dim>
				</port>
			</output>
		</layer>
		<layer id="171" name="14411445_const" type="Const" version="opset1">
			<data element_type="f16" offset="452136" shape="256,1,1,1" size="512"/>
			<output>
				<port id="1" precision="FP16">
					<dim>256</dim>
					<dim>1</dim>
					<dim>1</dim>
					<dim>1</dim>
				</port>
			</output>
		</layer>
		<layer id="172" name="14421446_const" type="Const" version="opset1">
			<data element_type="f16" offset="452648" shape="256,1,1,1" size="512"/>
			<output>
				<port id="1" precision="FP16">
					<dim>256</dim>
					<dim>1</dim>
					<dim>1</dim>
					<dim>1</dim>
				</port>
			</output>
		</layer>
		<layer id="173" name="14431447_const" type="Const" version="opset1">
			<data element_type="f16" offset="452136" shape="256,1,1,1" size="512"/>
			<output>
				<port id="1" precision="FP16">
					<dim>256</dim>
					<dim>1</dim>
					<dim>1</dim>
					<dim>1</dim>
				</port>
			</output>
		</layer>
		<layer id="174" name="14441448_const" type="Const" version="opset1">
			<data element_type="f16" offset="452648" shape="256,1,1,1" size="512"/>
			<output>
				<port id="1" precision="FP16">
					<dim>256</dim>
					<dim>1</dim>
					<dim>1</dim>
					<dim>1</dim>
				</port>
			</output>
		</layer>
		<layer id="175" name="resnet_model/conv2d_10/Conv2D/fq_weights_1" type="FakeQuantize" version="opset1">
			<data levels="255"/>
			<input>
				<port id="0">
					<dim>256</dim>
					<dim>64</dim>
					<dim>1</dim>
					<dim>1</dim>
				</port>
				<port id="1">
					<dim>256</dim>
					<dim>1</dim>
					<dim>1</dim>
					<dim>1</dim>
				</port>
				<port id="2">
					<dim>256</dim>
					<dim>1</dim>
					<dim>1</dim>
					<dim>1</dim>
				</port>
				<port id="3">
					<dim>256</dim>
					<dim>1</dim>
					<dim>1</dim>
					<dim>1</dim>
				</port>
				<port id="4">
					<dim>256</dim>
					<dim>1</dim>
					<dim>1</dim>
					<dim>1</dim>
				</port>
			</input>
			<output>
				<port id="5" precision="FP16">
					<dim>256</dim>
					<dim>64</dim>
					<dim>1</dim>
					<dim>1</dim>
				</port>
			</output>
		</layer>
		<layer id="176" name="resnet_model/conv2d_10/Conv2D" type="Convolution" version="opset1">
			<data auto_pad="same_upper" dilations="1,1" output_padding="0,0" pads_begin="0,0" pads_end="0,0" strides="1,1"/>
			<input>
				<port id="0">
					<dim>1</dim>
					<dim>64</dim>
					<dim>56</dim>
					<dim>56</dim>
				</port>
				<port id="1">
					<dim>256</dim>
					<dim>64</dim>
					<dim>1</dim>
					<dim>1</dim>
				</port>
			</input>
			<output>
				<port id="2" precision="FP16">
					<dim>1</dim>
					<dim>256</dim>
					<dim>56</dim>
					<dim>56</dim>
				</port>
			</output>
		</layer>
		<layer id="177" name="data_add_95629567/copy_const351_const" type="Const" version="opset1">
			<data element_type="f16" offset="453160" shape="1,256,1,1" size="512"/>
			<output>
				<port id="1" precision="FP16">
					<dim>1</dim>
					<dim>256</dim>
					<dim>1</dim>
					<dim>1</dim>
				</port>
			</output>
		</layer>
		<layer id="178" name="Add1_8426/Fused_Add_" type="Add" version="opset1">
			<input>
				<port id="0">
					<dim>1</dim>
					<dim>256</dim>
					<dim>56</dim>
					<dim>56</dim>
				</port>
				<port id="1">
					<dim>1</dim>
					<dim>256</dim>
					<dim>1</dim>
					<dim>1</dim>
				</port>
			</input>
			<output>
				<port id="2" precision="FP16">
					<dim>1</dim>
					<dim>256</dim>
					<dim>56</dim>
					<dim>56</dim>
				</port>
			</output>
		</layer>
		<layer id="179" name="21812185_const" type="Const" version="opset1">
			<data element_type="f16" offset="453672" shape="" size="2"/>
			<output>
				<port id="1" precision="FP16"/>
			</output>
		</layer>
		<layer id="180" name="21822186_const" type="Const" version="opset1">
			<data element_type="f16" offset="453674" shape="" size="2"/>
			<output>
				<port id="1" precision="FP16"/>
			</output>
		</layer>
		<layer id="181" name="21832187_const" type="Const" version="opset1">
			<data element_type="f16" offset="453672" shape="" size="2"/>
			<output>
				<port id="1" precision="FP16"/>
			</output>
		</layer>
		<layer id="182" name="21842188_const" type="Const" version="opset1">
			<data element_type="f16" offset="453674" shape="" size="2"/>
			<output>
				<port id="1" precision="FP16"/>
			</output>
		</layer>
		<layer id="183" name="resnet_model/add_2/fq_input_0" type="FakeQuantize" version="opset1">
			<data levels="256"/>
			<input>
				<port id="0">
					<dim>1</dim>
					<dim>256</dim>
					<dim>56</dim>
					<dim>56</dim>
				</port>
				<port id="1"/>
				<port id="2"/>
				<port id="3"/>
				<port id="4"/>
			</input>
			<output>
				<port id="5" precision="FP16">
					<dim>1</dim>
					<dim>256</dim>
					<dim>56</dim>
					<dim>56</dim>
				</port>
			</output>
		</layer>
		<layer id="184" name="resnet_model/add_2" type="Add" version="opset1">
			<input>
				<port id="0">
					<dim>1</dim>
					<dim>256</dim>
					<dim>56</dim>
					<dim>56</dim>
				</port>
				<port id="1">
					<dim>1</dim>
					<dim>256</dim>
					<dim>56</dim>
					<dim>56</dim>
				</port>
			</input>
			<output>
				<port id="2" precision="FP16">
					<dim>1</dim>
					<dim>256</dim>
					<dim>56</dim>
					<dim>56</dim>
				</port>
			</output>
		</layer>
		<layer id="185" name="resnet_model/Relu_9" type="ReLU" version="opset1">
			<input>
				<port id="0">
					<dim>1</dim>
					<dim>256</dim>
					<dim>56</dim>
					<dim>56</dim>
				</port>
			</input>
			<output>
				<port id="1" precision="FP16">
					<dim>1</dim>
					<dim>256</dim>
					<dim>56</dim>
					<dim>56</dim>
				</port>
			</output>
		</layer>
		<layer id="186" name="12711275_const" type="Const" version="opset1">
			<data element_type="f16" offset="19210" shape="" size="2"/>
			<output>
				<port id="1" precision="FP16"/>
			</output>
		</layer>
		<layer id="187" name="12721276_const" type="Const" version="opset1">
			<data element_type="f16" offset="453676" shape="" size="2"/>
			<output>
				<port id="1" precision="FP16"/>
			</output>
		</layer>
		<layer id="188" name="12731277_const" type="Const" version="opset1">
			<data element_type="f16" offset="19210" shape="" size="2"/>
			<output>
				<port id="1" precision="FP16"/>
			</output>
		</layer>
		<layer id="189" name="12741278_const" type="Const" version="opset1">
			<data element_type="f16" offset="453676" shape="" size="2"/>
			<output>
				<port id="1" precision="FP16"/>
			</output>
		</layer>
		<layer id="190" name="resnet_model/conv2d_11/Conv2D/fq_input_0" type="FakeQuantize" version="opset1">
			<data levels="256"/>
			<input>
				<port id="0">
					<dim>1</dim>
					<dim>256</dim>
					<dim>56</dim>
					<dim>56</dim>
				</port>
				<port id="1"/>
				<port id="2"/>
				<port id="3"/>
				<port id="4"/>
			</input>
			<output>
				<port id="5" precision="FP16">
					<dim>1</dim>
					<dim>256</dim>
					<dim>56</dim>
					<dim>56</dim>
				</port>
			</output>
		</layer>
		<layer id="191" name="Mul1_8449/Fused_Mul_1038610388_const355_const" type="Const" version="opset1">
			<data element_type="f16" offset="453678" shape="128,256,1,1" size="65536"/>
			<output>
				<port id="1" precision="FP16">
					<dim>128</dim>
					<dim>256</dim>
					<dim>1</dim>
					<dim>1</dim>
				</port>
			</output>
		</layer>
		<layer id="192" name="21512155_const" type="Const" version="opset1">
			<data element_type="f16" offset="519214" shape="128,1,1,1" size="256"/>
			<output>
				<port id="1" precision="FP16">
					<dim>128</dim>
					<dim>1</dim>
					<dim>1</dim>
					<dim>1</dim>
				</port>
			</output>
		</layer>
		<layer id="193" name="21522156_const" type="Const" version="opset1">
			<data element_type="f16" offset="519470" shape="128,1,1,1" size="256"/>
			<output>
				<port id="1" precision="FP16">
					<dim>128</dim>
					<dim>1</dim>
					<dim>1</dim>
					<dim>1</dim>
				</port>
			</output>
		</layer>
		<layer id="194" name="21532157_const" type="Const" version="opset1">
			<data element_type="f16" offset="519214" shape="128,1,1,1" size="256"/>
			<output>
				<port id="1" precision="FP16">
					<dim>128</dim>
					<dim>1</dim>
					<dim>1</dim>
					<dim>1</dim>
				</port>
			</output>
		</layer>
		<layer id="195" name="21542158_const" type="Const" version="opset1">
			<data element_type="f16" offset="519470" shape="128,1,1,1" size="256"/>
			<output>
				<port id="1" precision="FP16">
					<dim>128</dim>
					<dim>1</dim>
					<dim>1</dim>
					<dim>1</dim>
				</port>
			</output>
		</layer>
		<layer id="196" name="resnet_model/conv2d_12/Conv2D/fq_weights_1" type="FakeQuantize" version="opset1">
			<data levels="255"/>
			<input>
				<port id="0">
					<dim>128</dim>
					<dim>256</dim>
					<dim>1</dim>
					<dim>1</dim>
				</port>
				<port id="1">
					<dim>128</dim>
					<dim>1</dim>
					<dim>1</dim>
					<dim>1</dim>
				</port>
				<port id="2">
					<dim>128</dim>
					<dim>1</dim>
					<dim>1</dim>
					<dim>1</dim>
				</port>
				<port id="3">
					<dim>128</dim>
					<dim>1</dim>
					<dim>1</dim>
					<dim>1</dim>
				</port>
				<port id="4">
					<dim>128</dim>
					<dim>1</dim>
					<dim>1</dim>
					<dim>1</dim>
				</port>
			</input>
			<output>
				<port id="5" precision="FP16">
					<dim>128</dim>
					<dim>256</dim>
					<dim>1</dim>
					<dim>1</dim>
				</port>
			</output>
		</layer>
		<layer id="197" name="resnet_model/conv2d_12/Conv2D" type="Convolution" version="opset1">
			<data auto_pad="same_upper" dilations="1,1" output_padding="0,0" pads_begin="0,0" pads_end="0,0" strides="1,1"/>
			<input>
				<port id="0">
					<dim>1</dim>
					<dim>256</dim>
					<dim>56</dim>
					<dim>56</dim>
				</port>
				<port id="1">
					<dim>128</dim>
					<dim>256</dim>
					<dim>1</dim>
					<dim>1</dim>
				</port>
			</input>
			<output>
				<port id="2" precision="FP16">
					<dim>1</dim>
					<dim>128</dim>
					<dim>56</dim>
					<dim>56</dim>
				</port>
			</output>
		</layer>
		<layer id="198" name="data_add_95709575/copy_const357_const" type="Const" version="opset1">
			<data element_type="f16" offset="519726" shape="1,128,1,1" size="256"/>
			<output>
				<port id="1" precision="FP16">
					<dim>1</dim>
					<dim>128</dim>
					<dim>1</dim>
					<dim>1</dim>
				</port>
			</output>
		</layer>
		<layer id="199" name="Add1_8450/Fused_Add_" type="Add" version="opset1">
			<input>
				<port id="0">
					<dim>1</dim>
					<dim>128</dim>
					<dim>56</dim>
					<dim>56</dim>
				</port>
				<port id="1">
					<dim>1</dim>
					<dim>128</dim>
					<dim>1</dim>
					<dim>1</dim>
				</port>
			</input>
			<output>
				<port id="2" precision="FP16">
					<dim>1</dim>
					<dim>128</dim>
					<dim>56</dim>
					<dim>56</dim>
				</port>
			</output>
		</layer>
		<layer id="200" name="resnet_model/Relu_10" type="ReLU" version="opset1">
			<input>
				<port id="0">
					<dim>1</dim>
					<dim>128</dim>
					<dim>56</dim>
					<dim>56</dim>
				</port>
			</input>
			<output>
				<port id="1" precision="FP16">
					<dim>1</dim>
					<dim>128</dim>
					<dim>56</dim>
					<dim>56</dim>
				</port>
			</output>
		</layer>
		<layer id="201" name="10111015_const" type="Const" version="opset1">
			<data element_type="f16" offset="19210" shape="" size="2"/>
			<output>
				<port id="1" precision="FP16"/>
			</output>
		</layer>
		<layer id="202" name="10121016_const" type="Const" version="opset1">
			<data element_type="f16" offset="519982" shape="" size="2"/>
			<output>
				<port id="1" precision="FP16"/>
			</output>
		</layer>
		<layer id="203" name="10131017_const" type="Const" version="opset1">
			<data element_type="f16" offset="19210" shape="" size="2"/>
			<output>
				<port id="1" precision="FP16"/>
			</output>
		</layer>
		<layer id="204" name="10141018_const" type="Const" version="opset1">
			<data element_type="f16" offset="519982" shape="" size="2"/>
			<output>
				<port id="1" precision="FP16"/>
			</output>
		</layer>
		<layer id="205" name="resnet_model/conv2d_13/Conv2D/fq_input_0" type="FakeQuantize" version="opset1">
			<data levels="256"/>
			<input>
				<port id="0">
					<dim>1</dim>
					<dim>128</dim>
					<dim>56</dim>
					<dim>56</dim>
				</port>
				<port id="1"/>
				<port id="2"/>
				<port id="3"/>
				<port id="4"/>
			</input>
			<output>
				<port id="5" precision="FP16">
					<dim>1</dim>
					<dim>128</dim>
					<dim>56</dim>
					<dim>56</dim>
				</port>
			</output>
		</layer>
		<layer id="206" name="Mul1_8461/Fused_Mul_1039010392_const360_const" type="Const" version="opset1">
			<data element_type="f16" offset="519984" shape="128,128,3,3" size="294912"/>
			<output>
				<port id="1" precision="FP16">
					<dim>128</dim>
					<dim>128</dim>
					<dim>3</dim>
					<dim>3</dim>
				</port>
			</output>
		</layer>
		<layer id="207" name="10211025_const" type="Const" version="opset1">
			<data element_type="f16" offset="814896" shape="128,1,1,1" size="256"/>
			<output>
				<port id="1" precision="FP16">
					<dim>128</dim>
					<dim>1</dim>
					<dim>1</dim>
					<dim>1</dim>
				</port>
			</output>
		</layer>
		<layer id="208" name="10221026_const" type="Const" version="opset1">
			<data element_type="f16" offset="815152" shape="128,1,1,1" size="256"/>
			<output>
				<port id="1" precision="FP16">
					<dim>128</dim>
					<dim>1</dim>
					<dim>1</dim>
					<dim>1</dim>
				</port>
			</output>
		</layer>
		<layer id="209" name="10231027_const" type="Const" version="opset1">
			<data element_type="f16" offset="814896" shape="128,1,1,1" size="256"/>
			<output>
				<port id="1" precision="FP16">
					<dim>128</dim>
					<dim>1</dim>
					<dim>1</dim>
					<dim>1</dim>
				</port>
			</output>
		</layer>
		<layer id="210" name="10241028_const" type="Const" version="opset1">
			<data element_type="f16" offset="815152" shape="128,1,1,1" size="256"/>
			<output>
				<port id="1" precision="FP16">
					<dim>128</dim>
					<dim>1</dim>
					<dim>1</dim>
					<dim>1</dim>
				</port>
			</output>
		</layer>
		<layer id="211" name="resnet_model/conv2d_13/Conv2D/fq_weights_1" type="FakeQuantize" version="opset1">
			<data levels="255"/>
			<input>
				<port id="0">
					<dim>128</dim>
					<dim>128</dim>
					<dim>3</dim>
					<dim>3</dim>
				</port>
				<port id="1">
					<dim>128</dim>
					<dim>1</dim>
					<dim>1</dim>
					<dim>1</dim>
				</port>
				<port id="2">
					<dim>128</dim>
					<dim>1</dim>
					<dim>1</dim>
					<dim>1</dim>
				</port>
				<port id="3">
					<dim>128</dim>
					<dim>1</dim>
					<dim>1</dim>
					<dim>1</dim>
				</port>
				<port id="4">
					<dim>128</dim>
					<dim>1</dim>
					<dim>1</dim>
					<dim>1</dim>
				</port>
			</input>
			<output>
				<port id="5" precision="FP16">
					<dim>128</dim>
					<dim>128</dim>
					<dim>3</dim>
					<dim>3</dim>
				</port>
			</output>
		</layer>
		<layer id="212" name="resnet_model/conv2d_13/Conv2D" type="Convolution" version="opset1">
			<data dilations="1,1" output_padding="0,0" pads_begin="1,1" pads_end="1,1" strides="2,2"/>
			<input>
				<port id="0">
					<dim>1</dim>
					<dim>128</dim>
					<dim>56</dim>
					<dim>56</dim>
				</port>
				<port id="1">
					<dim>128</dim>
					<dim>128</dim>
					<dim>3</dim>
					<dim>3</dim>
				</port>
			</input>
			<output>
				<port id="2" precision="FP16">
					<dim>1</dim>
					<dim>128</dim>
					<dim>28</dim>
					<dim>28</dim>
				</port>
			</output>
		</layer>
		<layer id="213" name="data_add_95789583/copy_const362_const" type="Const" version="opset1">
			<data element_type="f16" offset="815408" shape="1,128,1,1" size="256"/>
			<output>
				<port id="1" precision="FP16">
					<dim>1</dim>
					<dim>128</dim>
					<dim>1</dim>
					<dim>1</dim>
				</port>
			</output>
		</layer>
		<layer id="214" name="Add1_8462/Fused_Add_" type="Add" version="opset1">
			<input>
				<port id="0">
					<dim>1</dim>
					<dim>128</dim>
					<dim>28</dim>
					<dim>28</dim>
				</port>
				<port id="1">
					<dim>1</dim>
					<dim>128</dim>
					<dim>1</dim>
					<dim>1</dim>
				</port>
			</input>
			<output>
				<port id="2" precision="FP16">
					<dim>1</dim>
					<dim>128</dim>
					<dim>28</dim>
					<dim>28</dim>
				</port>
			</output>
		</layer>
		<layer id="215" name="resnet_model/Relu_11" type="ReLU" version="opset1">
			<input>
				<port id="0">
					<dim>1</dim>
					<dim>128</dim>
					<dim>28</dim>
					<dim>28</dim>
				</port>
			</input>
			<output>
				<port id="1" precision="FP16">
					<dim>1</dim>
					<dim>128</dim>
					<dim>28</dim>
					<dim>28</dim>
				</port>
			</output>
		</layer>
		<layer id="216" name="811815_const" type="Const" version="opset1">
			<data element_type="f16" offset="19210" shape="" size="2"/>
			<output>
				<port id="1" precision="FP16"/>
			</output>
		</layer>
		<layer id="217" name="812816_const" type="Const" version="opset1">
			<data element_type="f16" offset="815664" shape="" size="2"/>
			<output>
				<port id="1" precision="FP16"/>
			</output>
		</layer>
		<layer id="218" name="813817_const" type="Const" version="opset1">
			<data element_type="f16" offset="19210" shape="" size="2"/>
			<output>
				<port id="1" precision="FP16"/>
			</output>
		</layer>
		<layer id="219" name="814818_const" type="Const" version="opset1">
			<data element_type="f16" offset="815664" shape="" size="2"/>
			<output>
				<port id="1" precision="FP16"/>
			</output>
		</layer>
		<layer id="220" name="resnet_model/conv2d_14/Conv2D/fq_input_0" type="FakeQuantize" version="opset1">
			<data levels="256"/>
			<input>
				<port id="0">
					<dim>1</dim>
					<dim>128</dim>
					<dim>28</dim>
					<dim>28</dim>
				</port>
				<port id="1"/>
				<port id="2"/>
				<port id="3"/>
				<port id="4"/>
			</input>
			<output>
				<port id="5" precision="FP16">
					<dim>1</dim>
					<dim>128</dim>
					<dim>28</dim>
					<dim>28</dim>
				</port>
			</output>
		</layer>
		<layer id="221" name="Mul1_8473/Fused_Mul_1039410396_const365_const" type="Const" version="opset1">
			<data element_type="f16" offset="815666" shape="512,128,1,1" size="131072"/>
			<output>
				<port id="1" precision="FP16">
					<dim>512</dim>
					<dim>128</dim>
					<dim>1</dim>
					<dim>1</dim>
				</port>
			</output>
		</layer>
		<layer id="222" name="821825_const" type="Const" version="opset1">
			<data element_type="f16" offset="946738" shape="512,1,1,1" size="1024"/>
			<output>
				<port id="1" precision="FP16">
					<dim>512</dim>
					<dim>1</dim>
					<dim>1</dim>
					<dim>1</dim>
				</port>
			</output>
		</layer>
		<layer id="223" name="822826_const" type="Const" version="opset1">
			<data element_type="f16" offset="947762" shape="512,1,1,1" size="1024"/>
			<output>
				<port id="1" precision="FP16">
					<dim>512</dim>
					<dim>1</dim>
					<dim>1</dim>
					<dim>1</dim>
				</port>
			</output>
		</layer>
		<layer id="224" name="823827_const" type="Const" version="opset1">
			<data element_type="f16" offset="946738" shape="512,1,1,1" size="1024"/>
			<output>
				<port id="1" precision="FP16">
					<dim>512</dim>
					<dim>1</dim>
					<dim>1</dim>
					<dim>1</dim>
				</port>
			</output>
		</layer>
		<layer id="225" name="824828_const" type="Const" version="opset1">
			<data element_type="f16" offset="947762" shape="512,1,1,1" size="1024"/>
			<output>
				<port id="1" precision="FP16">
					<dim>512</dim>
					<dim>1</dim>
					<dim>1</dim>
					<dim>1</dim>
				</port>
			</output>
		</layer>
		<layer id="226" name="resnet_model/conv2d_14/Conv2D/fq_weights_1" type="FakeQuantize" version="opset1">
			<data levels="255"/>
			<input>
				<port id="0">
					<dim>512</dim>
					<dim>128</dim>
					<dim>1</dim>
					<dim>1</dim>
				</port>
				<port id="1">
					<dim>512</dim>
					<dim>1</dim>
					<dim>1</dim>
					<dim>1</dim>
				</port>
				<port id="2">
					<dim>512</dim>
					<dim>1</dim>
					<dim>1</dim>
					<dim>1</dim>
				</port>
				<port id="3">
					<dim>512</dim>
					<dim>1</dim>
					<dim>1</dim>
					<dim>1</dim>
				</port>
				<port id="4">
					<dim>512</dim>
					<dim>1</dim>
					<dim>1</dim>
					<dim>1</dim>
				</port>
			</input>
			<output>
				<port id="5" precision="FP16">
					<dim>512</dim>
					<dim>128</dim>
					<dim>1</dim>
					<dim>1</dim>
				</port>
			</output>
		</layer>
		<layer id="227" name="resnet_model/conv2d_14/Conv2D" type="Convolution" version="opset1">
			<data auto_pad="same_upper" dilations="1,1" output_padding="0,0" pads_begin="0,0" pads_end="0,0" strides="1,1"/>
			<input>
				<port id="0">
					<dim>1</dim>
					<dim>128</dim>
					<dim>28</dim>
					<dim>28</dim>
				</port>
				<port id="1">
					<dim>512</dim>
					<dim>128</dim>
					<dim>1</dim>
					<dim>1</dim>
				</port>
			</input>
			<output>
				<port id="2" precision="FP16">
					<dim>1</dim>
					<dim>512</dim>
					<dim>28</dim>
					<dim>28</dim>
				</port>
			</output>
		</layer>
		<layer id="228" name="data_add_95869591/copy_const367_const" type="Const" version="opset1">
			<data element_type="f16" offset="948786" shape="1,512,1,1" size="1024"/>
			<output>
				<port id="1" precision="FP16">
					<dim>1</dim>
					<dim>512</dim>
					<dim>1</dim>
					<dim>1</dim>
				</port>
			</output>
		</layer>
		<layer id="229" name="Add1_8474/Fused_Add_" type="Add" version="opset1">
			<input>
				<port id="0">
					<dim>1</dim>
					<dim>512</dim>
					<dim>28</dim>
					<dim>28</dim>
				</port>
				<port id="1">
					<dim>1</dim>
					<dim>512</dim>
					<dim>1</dim>
					<dim>1</dim>
				</port>
			</input>
			<output>
				<port id="2" precision="FP16">
					<dim>1</dim>
					<dim>512</dim>
					<dim>28</dim>
					<dim>28</dim>
				</port>
			</output>
		</layer>
		<layer id="230" name="15711575_const" type="Const" version="opset1">
			<data element_type="f16" offset="949810" shape="" size="2"/>
			<output>
				<port id="1" precision="FP16"/>
			</output>
		</layer>
		<layer id="231" name="15721576_const" type="Const" version="opset1">
			<data element_type="f16" offset="949812" shape="" size="2"/>
			<output>
				<port id="1" precision="FP16"/>
			</output>
		</layer>
		<layer id="232" name="15731577_const" type="Const" version="opset1">
			<data element_type="f16" offset="949810" shape="" size="2"/>
			<output>
				<port id="1" precision="FP16"/>
			</output>
		</layer>
		<layer id="233" name="15741578_const" type="Const" version="opset1">
			<data element_type="f16" offset="949812" shape="" size="2"/>
			<output>
				<port id="1" precision="FP16"/>
			</output>
		</layer>
		<layer id="234" name="resnet_model/add_3/fq_input_0" type="FakeQuantize" version="opset1">
			<data levels="256"/>
			<input>
				<port id="0">
					<dim>1</dim>
					<dim>512</dim>
					<dim>28</dim>
					<dim>28</dim>
				</port>
				<port id="1"/>
				<port id="2"/>
				<port id="3"/>
				<port id="4"/>
			</input>
			<output>
				<port id="5" precision="FP16">
					<dim>1</dim>
					<dim>512</dim>
					<dim>28</dim>
					<dim>28</dim>
				</port>
			</output>
		</layer>
		<layer id="235" name="Mul1_8437/Fused_Mul_1039810400_const369_const" type="Const" version="opset1">
			<data element_type="f16" offset="949814" shape="512,256,1,1" size="262144"/>
			<output>
				<port id="1" precision="FP16">
					<dim>512</dim>
					<dim>256</dim>
					<dim>1</dim>
					<dim>1</dim>
				</port>
			</output>
		</layer>
		<layer id="236" name="12811285_const" type="Const" version="opset1">
			<data element_type="f16" offset="1211958" shape="512,1,1,1" size="1024"/>
			<output>
				<port id="1" precision="FP16">
					<dim>512</dim>
					<dim>1</dim>
					<dim>1</dim>
					<dim>1</dim>
				</port>
			</output>
		</layer>
		<layer id="237" name="12821286_const" type="Const" version="opset1">
			<data element_type="f16" offset="1212982" shape="512,1,1,1" size="1024"/>
			<output>
				<port id="1" precision="FP16">
					<dim>512</dim>
					<dim>1</dim>
					<dim>1</dim>
					<dim>1</dim>
				</port>
			</output>
		</layer>
		<layer id="238" name="12831287_const" type="Const" version="opset1">
			<data element_type="f16" offset="1211958" shape="512,1,1,1" size="1024"/>
			<output>
				<port id="1" precision="FP16">
					<dim>512</dim>
					<dim>1</dim>
					<dim>1</dim>
					<dim>1</dim>
				</port>
			</output>
		</layer>
		<layer id="239" name="12841288_const" type="Const" version="opset1">
			<data element_type="f16" offset="1212982" shape="512,1,1,1" size="1024"/>
			<output>
				<port id="1" precision="FP16">
					<dim>512</dim>
					<dim>1</dim>
					<dim>1</dim>
					<dim>1</dim>
				</port>
			</output>
		</layer>
		<layer id="240" name="resnet_model/conv2d_11/Conv2D/fq_weights_1" type="FakeQuantize" version="opset1">
			<data levels="255"/>
			<input>
				<port id="0">
					<dim>512</dim>
					<dim>256</dim>
					<dim>1</dim>
					<dim>1</dim>
				</port>
				<port id="1">
					<dim>512</dim>
					<dim>1</dim>
					<dim>1</dim>
					<dim>1</dim>
				</port>
				<port id="2">
					<dim>512</dim>
					<dim>1</dim>
					<dim>1</dim>
					<dim>1</dim>
				</port>
				<port id="3">
					<dim>512</dim>
					<dim>1</dim>
					<dim>1</dim>
					<dim>1</dim>
				</port>
				<port id="4">
					<dim>512</dim>
					<dim>1</dim>
					<dim>1</dim>
					<dim>1</dim>
				</port>
			</input>
			<output>
				<port id="5" precision="FP16">
					<dim>512</dim>
					<dim>256</dim>
					<dim>1</dim>
					<dim>1</dim>
				</port>
			</output>
		</layer>
		<layer id="241" name="resnet_model/conv2d_11/Conv2D" type="Convolution" version="opset1">
			<data auto_pad="valid" dilations="1,1" output_padding="0,0" pads_begin="0,0" pads_end="0,0" strides="2,2"/>
			<input>
				<port id="0">
					<dim>1</dim>
					<dim>256</dim>
					<dim>56</dim>
					<dim>56</dim>
				</port>
				<port id="1">
					<dim>512</dim>
					<dim>256</dim>
					<dim>1</dim>
					<dim>1</dim>
				</port>
			</input>
			<output>
				<port id="2" precision="FP16">
					<dim>1</dim>
					<dim>512</dim>
					<dim>28</dim>
					<dim>28</dim>
				</port>
			</output>
		</layer>
		<layer id="242" name="data_add_95949599/copy_const371_const" type="Const" version="opset1">
			<data element_type="f16" offset="1214006" shape="1,512,1,1" size="1024"/>
			<output>
				<port id="1" precision="FP16">
					<dim>1</dim>
					<dim>512</dim>
					<dim>1</dim>
					<dim>1</dim>
				</port>
			</output>
		</layer>
		<layer id="243" name="Add1_8438/Fused_Add_" type="Add" version="opset1">
			<input>
				<port id="0">
					<dim>1</dim>
					<dim>512</dim>
					<dim>28</dim>
					<dim>28</dim>
				</port>
				<port id="1">
					<dim>1</dim>
					<dim>512</dim>
					<dim>1</dim>
					<dim>1</dim>
				</port>
			</input>
			<output>
				<port id="2" precision="FP16">
					<dim>1</dim>
					<dim>512</dim>
					<dim>28</dim>
					<dim>28</dim>
				</port>
			</output>
		</layer>
		<layer id="244" name="15811585_const" type="Const" version="opset1">
			<data element_type="f16" offset="1215030" shape="" size="2"/>
			<output>
				<port id="1" precision="FP16"/>
			</output>
		</layer>
		<layer id="245" name="15821586_const" type="Const" version="opset1">
			<data element_type="f16" offset="1215032" shape="" size="2"/>
			<output>
				<port id="1" precision="FP16"/>
			</output>
		</layer>
		<layer id="246" name="15831587_const" type="Const" version="opset1">
			<data element_type="f16" offset="1215030" shape="" size="2"/>
			<output>
				<port id="1" precision="FP16"/>
			</output>
		</layer>
		<layer id="247" name="15841588_const" type="Const" version="opset1">
			<data element_type="f16" offset="1215032" shape="" size="2"/>
			<output>
				<port id="1" precision="FP16"/>
			</output>
		</layer>
		<layer id="248" name="resnet_model/add_3/fq_input_1" type="FakeQuantize" version="opset1">
			<data levels="256"/>
			<input>
				<port id="0">
					<dim>1</dim>
					<dim>512</dim>
					<dim>28</dim>
					<dim>28</dim>
				</port>
				<port id="1"/>
				<port id="2"/>
				<port id="3"/>
				<port id="4"/>
			</input>
			<output>
				<port id="5" precision="FP16">
					<dim>1</dim>
					<dim>512</dim>
					<dim>28</dim>
					<dim>28</dim>
				</port>
			</output>
		</layer>
		<layer id="249" name="resnet_model/add_3" type="Add" version="opset1">
			<input>
				<port id="0">
					<dim>1</dim>
					<dim>512</dim>
					<dim>28</dim>
					<dim>28</dim>
				</port>
				<port id="1">
					<dim>1</dim>
					<dim>512</dim>
					<dim>28</dim>
					<dim>28</dim>
				</port>
			</input>
			<output>
				<port id="2" precision="FP16">
					<dim>1</dim>
					<dim>512</dim>
					<dim>28</dim>
					<dim>28</dim>
				</port>
			</output>
		</layer>
		<layer id="250" name="resnet_model/Relu_12" type="ReLU" version="opset1">
			<input>
				<port id="0">
					<dim>1</dim>
					<dim>512</dim>
					<dim>28</dim>
					<dim>28</dim>
				</port>
			</input>
			<output>
				<port id="1" precision="FP16">
					<dim>1</dim>
					<dim>512</dim>
					<dim>28</dim>
					<dim>28</dim>
				</port>
			</output>
		</layer>
		<layer id="251" name="19511955_const" type="Const" version="opset1">
			<data element_type="f16" offset="19210" shape="" size="2"/>
			<output>
				<port id="1" precision="FP16"/>
			</output>
		</layer>
		<layer id="252" name="19521956_const" type="Const" version="opset1">
			<data element_type="f16" offset="1215034" shape="" size="2"/>
			<output>
				<port id="1" precision="FP16"/>
			</output>
		</layer>
		<layer id="253" name="19531957_const" type="Const" version="opset1">
			<data element_type="f16" offset="19210" shape="" size="2"/>
			<output>
				<port id="1" precision="FP16"/>
			</output>
		</layer>
		<layer id="254" name="19541958_const" type="Const" version="opset1">
			<data element_type="f16" offset="1215034" shape="" size="2"/>
			<output>
				<port id="1" precision="FP16"/>
			</output>
		</layer>
		<layer id="255" name="resnet_model/add_4/fq_input_1" type="FakeQuantize" version="opset1">
			<data levels="256"/>
			<input>
				<port id="0">
					<dim>1</dim>
					<dim>512</dim>
					<dim>28</dim>
					<dim>28</dim>
				</port>
				<port id="1"/>
				<port id="2"/>
				<port id="3"/>
				<port id="4"/>
			</input>
			<output>
				<port id="5" precision="FP16">
					<dim>1</dim>
					<dim>512</dim>
					<dim>28</dim>
					<dim>28</dim>
				</port>
			</output>
		</layer>
		<layer id="256" name="Mul1_8485/Fused_Mul_1040210404_const375_const" type="Const" version="opset1">
			<data element_type="f16" offset="1215036" shape="128,512,1,1" size="131072"/>
			<output>
				<port id="1" precision="FP16">
					<dim>128</dim>
					<dim>512</dim>
					<dim>1</dim>
					<dim>1</dim>
				</port>
			</output>
		</layer>
		<layer id="257" name="20112015_const" type="Const" version="opset1">
			<data element_type="f16" offset="1346108" shape="128,1,1,1" size="256"/>
			<output>
				<port id="1" precision="FP16">
					<dim>128</dim>
					<dim>1</dim>
					<dim>1</dim>
					<dim>1</dim>
				</port>
			</output>
		</layer>
		<layer id="258" name="20122016_const" type="Const" version="opset1">
			<data element_type="f16" offset="1346364" shape="128,1,1,1" size="256"/>
			<output>
				<port id="1" precision="FP16">
					<dim>128</dim>
					<dim>1</dim>
					<dim>1</dim>
					<dim>1</dim>
				</port>
			</output>
		</layer>
		<layer id="259" name="20132017_const" type="Const" version="opset1">
			<data element_type="f16" offset="1346108" shape="128,1,1,1" size="256"/>
			<output>
				<port id="1" precision="FP16">
					<dim>128</dim>
					<dim>1</dim>
					<dim>1</dim>
					<dim>1</dim>
				</port>
			</output>
		</layer>
		<layer id="260" name="20142018_const" type="Const" version="opset1">
			<data element_type="f16" offset="1346364" shape="128,1,1,1" size="256"/>
			<output>
				<port id="1" precision="FP16">
					<dim>128</dim>
					<dim>1</dim>
					<dim>1</dim>
					<dim>1</dim>
				</port>
			</output>
		</layer>
		<layer id="261" name="resnet_model/conv2d_15/Conv2D/fq_weights_1" type="FakeQuantize" version="opset1">
			<data levels="255"/>
			<input>
				<port id="0">
					<dim>128</dim>
					<dim>512</dim>
					<dim>1</dim>
					<dim>1</dim>
				</port>
				<port id="1">
					<dim>128</dim>
					<dim>1</dim>
					<dim>1</dim>
					<dim>1</dim>
				</port>
				<port id="2">
					<dim>128</dim>
					<dim>1</dim>
					<dim>1</dim>
					<dim>1</dim>
				</port>
				<port id="3">
					<dim>128</dim>
					<dim>1</dim>
					<dim>1</dim>
					<dim>1</dim>
				</port>
				<port id="4">
					<dim>128</dim>
					<dim>1</dim>
					<dim>1</dim>
					<dim>1</dim>
				</port>
			</input>
			<output>
				<port id="5" precision="FP16">
					<dim>128</dim>
					<dim>512</dim>
					<dim>1</dim>
					<dim>1</dim>
				</port>
			</output>
		</layer>
		<layer id="262" name="resnet_model/conv2d_15/Conv2D" type="Convolution" version="opset1">
			<data auto_pad="same_upper" dilations="1,1" output_padding="0,0" pads_begin="0,0" pads_end="0,0" strides="1,1"/>
			<input>
				<port id="0">
					<dim>1</dim>
					<dim>512</dim>
					<dim>28</dim>
					<dim>28</dim>
				</port>
				<port id="1">
					<dim>128</dim>
					<dim>512</dim>
					<dim>1</dim>
					<dim>1</dim>
				</port>
			</input>
			<output>
				<port id="2" precision="FP16">
					<dim>1</dim>
					<dim>128</dim>
					<dim>28</dim>
					<dim>28</dim>
				</port>
			</output>
		</layer>
		<layer id="263" name="data_add_96029607/copy_const377_const" type="Const" version="opset1">
			<data element_type="f16" offset="1346620" shape="1,128,1,1" size="256"/>
			<output>
				<port id="1" precision="FP16">
					<dim>1</dim>
					<dim>128</dim>
					<dim>1</dim>
					<dim>1</dim>
				</port>
			</output>
		</layer>
		<layer id="264" name="Add1_8486/Fused_Add_" type="Add" version="opset1">
			<input>
				<port id="0">
					<dim>1</dim>
					<dim>128</dim>
					<dim>28</dim>
					<dim>28</dim>
				</port>
				<port id="1">
					<dim>1</dim>
					<dim>128</dim>
					<dim>1</dim>
					<dim>1</dim>
				</port>
			</input>
			<output>
				<port id="2" precision="FP16">
					<dim>1</dim>
					<dim>128</dim>
					<dim>28</dim>
					<dim>28</dim>
				</port>
			</output>
		</layer>
		<layer id="265" name="resnet_model/Relu_13" type="ReLU" version="opset1">
			<input>
				<port id="0">
					<dim>1</dim>
					<dim>128</dim>
					<dim>28</dim>
					<dim>28</dim>
				</port>
			</input>
			<output>
				<port id="1" precision="FP16">
					<dim>1</dim>
					<dim>128</dim>
					<dim>28</dim>
					<dim>28</dim>
				</port>
			</output>
		</layer>
		<layer id="266" name="13311335_const" type="Const" version="opset1">
			<data element_type="f16" offset="19210" shape="" size="2"/>
			<output>
				<port id="1" precision="FP16"/>
			</output>
		</layer>
		<layer id="267" name="13321336_const" type="Const" version="opset1">
			<data element_type="f16" offset="1346876" shape="" size="2"/>
			<output>
				<port id="1" precision="FP16"/>
			</output>
		</layer>
		<layer id="268" name="13331337_const" type="Const" version="opset1">
			<data element_type="f16" offset="19210" shape="" size="2"/>
			<output>
				<port id="1" precision="FP16"/>
			</output>
		</layer>
		<layer id="269" name="13341338_const" type="Const" version="opset1">
			<data element_type="f16" offset="1346876" shape="" size="2"/>
			<output>
				<port id="1" precision="FP16"/>
			</output>
		</layer>
		<layer id="270" name="resnet_model/conv2d_16/Conv2D/fq_input_0" type="FakeQuantize" version="opset1">
			<data levels="256"/>
			<input>
				<port id="0">
					<dim>1</dim>
					<dim>128</dim>
					<dim>28</dim>
					<dim>28</dim>
				</port>
				<port id="1"/>
				<port id="2"/>
				<port id="3"/>
				<port id="4"/>
			</input>
			<output>
				<port id="5" precision="FP16">
					<dim>1</dim>
					<dim>128</dim>
					<dim>28</dim>
					<dim>28</dim>
				</port>
			</output>
		</layer>
		<layer id="271" name="Mul1_8497/Fused_Mul_1040610408_const380_const" type="Const" version="opset1">
			<data element_type="f16" offset="1346878" shape="128,128,3,3" size="294912"/>
			<output>
				<port id="1" precision="FP16">
					<dim>128</dim>
					<dim>128</dim>
					<dim>3</dim>
					<dim>3</dim>
				</port>
			</output>
		</layer>
		<layer id="272" name="13411345_const" type="Const" version="opset1">
			<data element_type="f16" offset="1641790" shape="128,1,1,1" size="256"/>
			<output>
				<port id="1" precision="FP16">
					<dim>128</dim>
					<dim>1</dim>
					<dim>1</dim>
					<dim>1</dim>
				</port>
			</output>
		</layer>
		<layer id="273" name="13421346_const" type="Const" version="opset1">
			<data element_type="f16" offset="1642046" shape="128,1,1,1" size="256"/>
			<output>
				<port id="1" precision="FP16">
					<dim>128</dim>
					<dim>1</dim>
					<dim>1</dim>
					<dim>1</dim>
				</port>
			</output>
		</layer>
		<layer id="274" name="13431347_const" type="Const" version="opset1">
			<data element_type="f16" offset="1641790" shape="128,1,1,1" size="256"/>
			<output>
				<port id="1" precision="FP16">
					<dim>128</dim>
					<dim>1</dim>
					<dim>1</dim>
					<dim>1</dim>
				</port>
			</output>
		</layer>
		<layer id="275" name="13441348_const" type="Const" version="opset1">
			<data element_type="f16" offset="1642046" shape="128,1,1,1" size="256"/>
			<output>
				<port id="1" precision="FP16">
					<dim>128</dim>
					<dim>1</dim>
					<dim>1</dim>
					<dim>1</dim>
				</port>
			</output>
		</layer>
		<layer id="276" name="resnet_model/conv2d_16/Conv2D/fq_weights_1" type="FakeQuantize" version="opset1">
			<data levels="255"/>
			<input>
				<port id="0">
					<dim>128</dim>
					<dim>128</dim>
					<dim>3</dim>
					<dim>3</dim>
				</port>
				<port id="1">
					<dim>128</dim>
					<dim>1</dim>
					<dim>1</dim>
					<dim>1</dim>
				</port>
				<port id="2">
					<dim>128</dim>
					<dim>1</dim>
					<dim>1</dim>
					<dim>1</dim>
				</port>
				<port id="3">
					<dim>128</dim>
					<dim>1</dim>
					<dim>1</dim>
					<dim>1</dim>
				</port>
				<port id="4">
					<dim>128</dim>
					<dim>1</dim>
					<dim>1</dim>
					<dim>1</dim>
				</port>
			</input>
			<output>
				<port id="5" precision="FP16">
					<dim>128</dim>
					<dim>128</dim>
					<dim>3</dim>
					<dim>3</dim>
				</port>
			</output>
		</layer>
		<layer id="277" name="resnet_model/conv2d_16/Conv2D" type="Convolution" version="opset1">
			<data auto_pad="same_upper" dilations="1,1" output_padding="0,0" pads_begin="1,1" pads_end="1,1" strides="1,1"/>
			<input>
				<port id="0">
					<dim>1</dim>
					<dim>128</dim>
					<dim>28</dim>
					<dim>28</dim>
				</port>
				<port id="1">
					<dim>128</dim>
					<dim>128</dim>
					<dim>3</dim>
					<dim>3</dim>
				</port>
			</input>
			<output>
				<port id="2" precision="FP16">
					<dim>1</dim>
					<dim>128</dim>
					<dim>28</dim>
					<dim>28</dim>
				</port>
			</output>
		</layer>
		<layer id="278" name="data_add_96109615/copy_const382_const" type="Const" version="opset1">
			<data element_type="f16" offset="1642302" shape="1,128,1,1" size="256"/>
			<output>
				<port id="1" precision="FP16">
					<dim>1</dim>
					<dim>128</dim>
					<dim>1</dim>
					<dim>1</dim>
				</port>
			</output>
		</layer>
		<layer id="279" name="Add1_8498/Fused_Add_" type="Add" version="opset1">
			<input>
				<port id="0">
					<dim>1</dim>
					<dim>128</dim>
					<dim>28</dim>
					<dim>28</dim>
				</port>
				<port id="1">
					<dim>1</dim>
					<dim>128</dim>
					<dim>1</dim>
					<dim>1</dim>
				</port>
			</input>
			<output>
				<port id="2" precision="FP16">
					<dim>1</dim>
					<dim>128</dim>
					<dim>28</dim>
					<dim>28</dim>
				</port>
			</output>
		</layer>
		<layer id="280" name="resnet_model/Relu_14" type="ReLU" version="opset1">
			<input>
				<port id="0">
					<dim>1</dim>
					<dim>128</dim>
					<dim>28</dim>
					<dim>28</dim>
				</port>
			</input>
			<output>
				<port id="1" precision="FP16">
					<dim>1</dim>
					<dim>128</dim>
					<dim>28</dim>
					<dim>28</dim>
				</port>
			</output>
		</layer>
		<layer id="281" name="15911595_const" type="Const" version="opset1">
			<data element_type="f16" offset="19210" shape="" size="2"/>
			<output>
				<port id="1" precision="FP16"/>
			</output>
		</layer>
		<layer id="282" name="15921596_const" type="Const" version="opset1">
			<data element_type="f16" offset="1642558" shape="" size="2"/>
			<output>
				<port id="1" precision="FP16"/>
			</output>
		</layer>
		<layer id="283" name="15931597_const" type="Const" version="opset1">
			<data element_type="f16" offset="19210" shape="" size="2"/>
			<output>
				<port id="1" precision="FP16"/>
			</output>
		</layer>
		<layer id="284" name="15941598_const" type="Const" version="opset1">
			<data element_type="f16" offset="1642558" shape="" size="2"/>
			<output>
				<port id="1" precision="FP16"/>
			</output>
		</layer>
		<layer id="285" name="resnet_model/conv2d_17/Conv2D/fq_input_0" type="FakeQuantize" version="opset1">
			<data levels="256"/>
			<input>
				<port id="0">
					<dim>1</dim>
					<dim>128</dim>
					<dim>28</dim>
					<dim>28</dim>
				</port>
				<port id="1"/>
				<port id="2"/>
				<port id="3"/>
				<port id="4"/>
			</input>
			<output>
				<port id="5" precision="FP16">
					<dim>1</dim>
					<dim>128</dim>
					<dim>28</dim>
					<dim>28</dim>
				</port>
			</output>
		</layer>
		<layer id="286" name="Mul1_8509/Fused_Mul_1041010412_const385_const" type="Const" version="opset1">
			<data element_type="f16" offset="1642560" shape="512,128,1,1" size="131072"/>
			<output>
				<port id="1" precision="FP16">
					<dim>512</dim>
					<dim>128</dim>
					<dim>1</dim>
					<dim>1</dim>
				</port>
			</output>
		</layer>
		<layer id="287" name="16011605_const" type="Const" version="opset1">
			<data element_type="f16" offset="1773632" shape="512,1,1,1" size="1024"/>
			<output>
				<port id="1" precision="FP16">
					<dim>512</dim>
					<dim>1</dim>
					<dim>1</dim>
					<dim>1</dim>
				</port>
			</output>
		</layer>
		<layer id="288" name="16021606_const" type="Const" version="opset1">
			<data element_type="f16" offset="1774656" shape="512,1,1,1" size="1024"/>
			<output>
				<port id="1" precision="FP16">
					<dim>512</dim>
					<dim>1</dim>
					<dim>1</dim>
					<dim>1</dim>
				</port>
			</output>
		</layer>
		<layer id="289" name="16031607_const" type="Const" version="opset1">
			<data element_type="f16" offset="1773632" shape="512,1,1,1" size="1024"/>
			<output>
				<port id="1" precision="FP16">
					<dim>512</dim>
					<dim>1</dim>
					<dim>1</dim>
					<dim>1</dim>
				</port>
			</output>
		</layer>
		<layer id="290" name="16041608_const" type="Const" version="opset1">
			<data element_type="f16" offset="1774656" shape="512,1,1,1" size="1024"/>
			<output>
				<port id="1" precision="FP16">
					<dim>512</dim>
					<dim>1</dim>
					<dim>1</dim>
					<dim>1</dim>
				</port>
			</output>
		</layer>
		<layer id="291" name="resnet_model/conv2d_17/Conv2D/fq_weights_1" type="FakeQuantize" version="opset1">
			<data levels="255"/>
			<input>
				<port id="0">
					<dim>512</dim>
					<dim>128</dim>
					<dim>1</dim>
					<dim>1</dim>
				</port>
				<port id="1">
					<dim>512</dim>
					<dim>1</dim>
					<dim>1</dim>
					<dim>1</dim>
				</port>
				<port id="2">
					<dim>512</dim>
					<dim>1</dim>
					<dim>1</dim>
					<dim>1</dim>
				</port>
				<port id="3">
					<dim>512</dim>
					<dim>1</dim>
					<dim>1</dim>
					<dim>1</dim>
				</port>
				<port id="4">
					<dim>512</dim>
					<dim>1</dim>
					<dim>1</dim>
					<dim>1</dim>
				</port>
			</input>
			<output>
				<port id="5" precision="FP16">
					<dim>512</dim>
					<dim>128</dim>
					<dim>1</dim>
					<dim>1</dim>
				</port>
			</output>
		</layer>
		<layer id="292" name="resnet_model/conv2d_17/Conv2D" type="Convolution" version="opset1">
			<data auto_pad="same_upper" dilations="1,1" output_padding="0,0" pads_begin="0,0" pads_end="0,0" strides="1,1"/>
			<input>
				<port id="0">
					<dim>1</dim>
					<dim>128</dim>
					<dim>28</dim>
					<dim>28</dim>
				</port>
				<port id="1">
					<dim>512</dim>
					<dim>128</dim>
					<dim>1</dim>
					<dim>1</dim>
				</port>
			</input>
			<output>
				<port id="2" precision="FP16">
					<dim>1</dim>
					<dim>512</dim>
					<dim>28</dim>
					<dim>28</dim>
				</port>
			</output>
		</layer>
		<layer id="293" name="data_add_96189623/copy_const387_const" type="Const" version="opset1">
			<data element_type="f16" offset="1775680" shape="1,512,1,1" size="1024"/>
			<output>
				<port id="1" precision="FP16">
					<dim>1</dim>
					<dim>512</dim>
					<dim>1</dim>
					<dim>1</dim>
				</port>
			</output>
		</layer>
		<layer id="294" name="Add1_8510/Fused_Add_" type="Add" version="opset1">
			<input>
				<port id="0">
					<dim>1</dim>
					<dim>512</dim>
					<dim>28</dim>
					<dim>28</dim>
				</port>
				<port id="1">
					<dim>1</dim>
					<dim>512</dim>
					<dim>1</dim>
					<dim>1</dim>
				</port>
			</input>
			<output>
				<port id="2" precision="FP16">
					<dim>1</dim>
					<dim>512</dim>
					<dim>28</dim>
					<dim>28</dim>
				</port>
			</output>
		</layer>
		<layer id="295" name="19411945_const" type="Const" version="opset1">
			<data element_type="f16" offset="1776704" shape="" size="2"/>
			<output>
				<port id="1" precision="FP16"/>
			</output>
		</layer>
		<layer id="296" name="19421946_const" type="Const" version="opset1">
			<data element_type="f16" offset="1776706" shape="" size="2"/>
			<output>
				<port id="1" precision="FP16"/>
			</output>
		</layer>
		<layer id="297" name="19431947_const" type="Const" version="opset1">
			<data element_type="f16" offset="1776704" shape="" size="2"/>
			<output>
				<port id="1" precision="FP16"/>
			</output>
		</layer>
		<layer id="298" name="19441948_const" type="Const" version="opset1">
			<data element_type="f16" offset="1776706" shape="" size="2"/>
			<output>
				<port id="1" precision="FP16"/>
			</output>
		</layer>
		<layer id="299" name="resnet_model/add_4/fq_input_0" type="FakeQuantize" version="opset1">
			<data levels="256"/>
			<input>
				<port id="0">
					<dim>1</dim>
					<dim>512</dim>
					<dim>28</dim>
					<dim>28</dim>
				</port>
				<port id="1"/>
				<port id="2"/>
				<port id="3"/>
				<port id="4"/>
			</input>
			<output>
				<port id="5" precision="FP16">
					<dim>1</dim>
					<dim>512</dim>
					<dim>28</dim>
					<dim>28</dim>
				</port>
			</output>
		</layer>
		<layer id="300" name="resnet_model/add_4" type="Add" version="opset1">
			<input>
				<port id="0">
					<dim>1</dim>
					<dim>512</dim>
					<dim>28</dim>
					<dim>28</dim>
				</port>
				<port id="1">
					<dim>1</dim>
					<dim>512</dim>
					<dim>28</dim>
					<dim>28</dim>
				</port>
			</input>
			<output>
				<port id="2" precision="FP16">
					<dim>1</dim>
					<dim>512</dim>
					<dim>28</dim>
					<dim>28</dim>
				</port>
			</output>
		</layer>
		<layer id="301" name="resnet_model/Relu_15" type="ReLU" version="opset1">
			<input>
				<port id="0">
					<dim>1</dim>
					<dim>512</dim>
					<dim>28</dim>
					<dim>28</dim>
				</port>
			</input>
			<output>
				<port id="1" precision="FP16">
					<dim>1</dim>
					<dim>512</dim>
					<dim>28</dim>
					<dim>28</dim>
				</port>
			</output>
		</layer>
		<layer id="302" name="18411845_const" type="Const" version="opset1">
			<data element_type="f16" offset="19210" shape="" size="2"/>
			<output>
				<port id="1" precision="FP16"/>
			</output>
		</layer>
		<layer id="303" name="18421846_const" type="Const" version="opset1">
			<data element_type="f16" offset="1776708" shape="" size="2"/>
			<output>
				<port id="1" precision="FP16"/>
			</output>
		</layer>
		<layer id="304" name="18431847_const" type="Const" version="opset1">
			<data element_type="f16" offset="19210" shape="" size="2"/>
			<output>
				<port id="1" precision="FP16"/>
			</output>
		</layer>
		<layer id="305" name="18441848_const" type="Const" version="opset1">
			<data element_type="f16" offset="1776708" shape="" size="2"/>
			<output>
				<port id="1" precision="FP16"/>
			</output>
		</layer>
		<layer id="306" name="resnet_model/add_5/fq_input_1" type="FakeQuantize" version="opset1">
			<data levels="256"/>
			<input>
				<port id="0">
					<dim>1</dim>
					<dim>512</dim>
					<dim>28</dim>
					<dim>28</dim>
				</port>
				<port id="1"/>
				<port id="2"/>
				<port id="3"/>
				<port id="4"/>
			</input>
			<output>
				<port id="5" precision="FP16">
					<dim>1</dim>
					<dim>512</dim>
					<dim>28</dim>
					<dim>28</dim>
				</port>
			</output>
		</layer>
		<layer id="307" name="Mul1_8521/Fused_Mul_1041410416_const391_const" type="Const" version="opset1">
			<data element_type="f16" offset="1776710" shape="128,512,1,1" size="131072"/>
			<output>
				<port id="1" precision="FP16">
					<dim>128</dim>
					<dim>512</dim>
					<dim>1</dim>
					<dim>1</dim>
				</port>
			</output>
		</layer>
		<layer id="308" name="14811485_const" type="Const" version="opset1">
			<data element_type="f16" offset="1907782" shape="128,1,1,1" size="256"/>
			<output>
				<port id="1" precision="FP16">
					<dim>128</dim>
					<dim>1</dim>
					<dim>1</dim>
					<dim>1</dim>
				</port>
			</output>
		</layer>
		<layer id="309" name="14821486_const" type="Const" version="opset1">
			<data element_type="f16" offset="1908038" shape="128,1,1,1" size="256"/>
			<output>
				<port id="1" precision="FP16">
					<dim>128</dim>
					<dim>1</dim>
					<dim>1</dim>
					<dim>1</dim>
				</port>
			</output>
		</layer>
		<layer id="310" name="14831487_const" type="Const" version="opset1">
			<data element_type="f16" offset="1907782" shape="128,1,1,1" size="256"/>
			<output>
				<port id="1" precision="FP16">
					<dim>128</dim>
					<dim>1</dim>
					<dim>1</dim>
					<dim>1</dim>
				</port>
			</output>
		</layer>
		<layer id="311" name="14841488_const" type="Const" version="opset1">
			<data element_type="f16" offset="1908038" shape="128,1,1,1" size="256"/>
			<output>
				<port id="1" precision="FP16">
					<dim>128</dim>
					<dim>1</dim>
					<dim>1</dim>
					<dim>1</dim>
				</port>
			</output>
		</layer>
		<layer id="312" name="resnet_model/conv2d_18/Conv2D/fq_weights_1" type="FakeQuantize" version="opset1">
			<data levels="255"/>
			<input>
				<port id="0">
					<dim>128</dim>
					<dim>512</dim>
					<dim>1</dim>
					<dim>1</dim>
				</port>
				<port id="1">
					<dim>128</dim>
					<dim>1</dim>
					<dim>1</dim>
					<dim>1</dim>
				</port>
				<port id="2">
					<dim>128</dim>
					<dim>1</dim>
					<dim>1</dim>
					<dim>1</dim>
				</port>
				<port id="3">
					<dim>128</dim>
					<dim>1</dim>
					<dim>1</dim>
					<dim>1</dim>
				</port>
				<port id="4">
					<dim>128</dim>
					<dim>1</dim>
					<dim>1</dim>
					<dim>1</dim>
				</port>
			</input>
			<output>
				<port id="5" precision="FP16">
					<dim>128</dim>
					<dim>512</dim>
					<dim>1</dim>
					<dim>1</dim>
				</port>
			</output>
		</layer>
		<layer id="313" name="resnet_model/conv2d_18/Conv2D" type="Convolution" version="opset1">
			<data auto_pad="same_upper" dilations="1,1" output_padding="0,0" pads_begin="0,0" pads_end="0,0" strides="1,1"/>
			<input>
				<port id="0">
					<dim>1</dim>
					<dim>512</dim>
					<dim>28</dim>
					<dim>28</dim>
				</port>
				<port id="1">
					<dim>128</dim>
					<dim>512</dim>
					<dim>1</dim>
					<dim>1</dim>
				</port>
			</input>
			<output>
				<port id="2" precision="FP16">
					<dim>1</dim>
					<dim>128</dim>
					<dim>28</dim>
					<dim>28</dim>
				</port>
			</output>
		</layer>
		<layer id="314" name="data_add_96269631/copy_const393_const" type="Const" version="opset1">
			<data element_type="f16" offset="1908294" shape="1,128,1,1" size="256"/>
			<output>
				<port id="1" precision="FP16">
					<dim>1</dim>
					<dim>128</dim>
					<dim>1</dim>
					<dim>1</dim>
				</port>
			</output>
		</layer>
		<layer id="315" name="Add1_8522/Fused_Add_" type="Add" version="opset1">
			<input>
				<port id="0">
					<dim>1</dim>
					<dim>128</dim>
					<dim>28</dim>
					<dim>28</dim>
				</port>
				<port id="1">
					<dim>1</dim>
					<dim>128</dim>
					<dim>1</dim>
					<dim>1</dim>
				</port>
			</input>
			<output>
				<port id="2" precision="FP16">
					<dim>1</dim>
					<dim>128</dim>
					<dim>28</dim>
					<dim>28</dim>
				</port>
			</output>
		</layer>
		<layer id="316" name="resnet_model/Relu_16" type="ReLU" version="opset1">
			<input>
				<port id="0">
					<dim>1</dim>
					<dim>128</dim>
					<dim>28</dim>
					<dim>28</dim>
				</port>
			</input>
			<output>
				<port id="1" precision="FP16">
					<dim>1</dim>
					<dim>128</dim>
					<dim>28</dim>
					<dim>28</dim>
				</port>
			</output>
		</layer>
		<layer id="317" name="17311735_const" type="Const" version="opset1">
			<data element_type="f16" offset="19210" shape="" size="2"/>
			<output>
				<port id="1" precision="FP16"/>
			</output>
		</layer>
		<layer id="318" name="17321736_const" type="Const" version="opset1">
			<data element_type="f16" offset="1908550" shape="" size="2"/>
			<output>
				<port id="1" precision="FP16"/>
			</output>
		</layer>
		<layer id="319" name="17331737_const" type="Const" version="opset1">
			<data element_type="f16" offset="19210" shape="" size="2"/>
			<output>
				<port id="1" precision="FP16"/>
			</output>
		</layer>
		<layer id="320" name="17341738_const" type="Const" version="opset1">
			<data element_type="f16" offset="1908550" shape="" size="2"/>
			<output>
				<port id="1" precision="FP16"/>
			</output>
		</layer>
		<layer id="321" name="resnet_model/conv2d_19/Conv2D/fq_input_0" type="FakeQuantize" version="opset1">
			<data levels="256"/>
			<input>
				<port id="0">
					<dim>1</dim>
					<dim>128</dim>
					<dim>28</dim>
					<dim>28</dim>
				</port>
				<port id="1"/>
				<port id="2"/>
				<port id="3"/>
				<port id="4"/>
			</input>
			<output>
				<port id="5" precision="FP16">
					<dim>1</dim>
					<dim>128</dim>
					<dim>28</dim>
					<dim>28</dim>
				</port>
			</output>
		</layer>
		<layer id="322" name="Mul1_8533/Fused_Mul_1041810420_const396_const" type="Const" version="opset1">
			<data element_type="f16" offset="1908552" shape="128,128,3,3" size="294912"/>
			<output>
				<port id="1" precision="FP16">
					<dim>128</dim>
					<dim>128</dim>
					<dim>3</dim>
					<dim>3</dim>
				</port>
			</output>
		</layer>
		<layer id="323" name="17411745_const" type="Const" version="opset1">
			<data element_type="f16" offset="2203464" shape="128,1,1,1" size="256"/>
			<output>
				<port id="1" precision="FP16">
					<dim>128</dim>
					<dim>1</dim>
					<dim>1</dim>
					<dim>1</dim>
				</port>
			</output>
		</layer>
		<layer id="324" name="17421746_const" type="Const" version="opset1">
			<data element_type="f16" offset="2203720" shape="128,1,1,1" size="256"/>
			<output>
				<port id="1" precision="FP16">
					<dim>128</dim>
					<dim>1</dim>
					<dim>1</dim>
					<dim>1</dim>
				</port>
			</output>
		</layer>
		<layer id="325" name="17431747_const" type="Const" version="opset1">
			<data element_type="f16" offset="2203464" shape="128,1,1,1" size="256"/>
			<output>
				<port id="1" precision="FP16">
					<dim>128</dim>
					<dim>1</dim>
					<dim>1</dim>
					<dim>1</dim>
				</port>
			</output>
		</layer>
		<layer id="326" name="17441748_const" type="Const" version="opset1">
			<data element_type="f16" offset="2203720" shape="128,1,1,1" size="256"/>
			<output>
				<port id="1" precision="FP16">
					<dim>128</dim>
					<dim>1</dim>
					<dim>1</dim>
					<dim>1</dim>
				</port>
			</output>
		</layer>
		<layer id="327" name="resnet_model/conv2d_19/Conv2D/fq_weights_1" type="FakeQuantize" version="opset1">
			<data levels="255"/>
			<input>
				<port id="0">
					<dim>128</dim>
					<dim>128</dim>
					<dim>3</dim>
					<dim>3</dim>
				</port>
				<port id="1">
					<dim>128</dim>
					<dim>1</dim>
					<dim>1</dim>
					<dim>1</dim>
				</port>
				<port id="2">
					<dim>128</dim>
					<dim>1</dim>
					<dim>1</dim>
					<dim>1</dim>
				</port>
				<port id="3">
					<dim>128</dim>
					<dim>1</dim>
					<dim>1</dim>
					<dim>1</dim>
				</port>
				<port id="4">
					<dim>128</dim>
					<dim>1</dim>
					<dim>1</dim>
					<dim>1</dim>
				</port>
			</input>
			<output>
				<port id="5" precision="FP16">
					<dim>128</dim>
					<dim>128</dim>
					<dim>3</dim>
					<dim>3</dim>
				</port>
			</output>
		</layer>
		<layer id="328" name="resnet_model/conv2d_19/Conv2D" type="Convolution" version="opset1">
			<data auto_pad="same_upper" dilations="1,1" output_padding="0,0" pads_begin="1,1" pads_end="1,1" strides="1,1"/>
			<input>
				<port id="0">
					<dim>1</dim>
					<dim>128</dim>
					<dim>28</dim>
					<dim>28</dim>
				</port>
				<port id="1">
					<dim>128</dim>
					<dim>128</dim>
					<dim>3</dim>
					<dim>3</dim>
				</port>
			</input>
			<output>
				<port id="2" precision="FP16">
					<dim>1</dim>
					<dim>128</dim>
					<dim>28</dim>
					<dim>28</dim>
				</port>
			</output>
		</layer>
		<layer id="329" name="data_add_96349639/copy_const398_const" type="Const" version="opset1">
			<data element_type="f16" offset="2203976" shape="1,128,1,1" size="256"/>
			<output>
				<port id="1" precision="FP16">
					<dim>1</dim>
					<dim>128</dim>
					<dim>1</dim>
					<dim>1</dim>
				</port>
			</output>
		</layer>
		<layer id="330" name="Add1_8534/Fused_Add_" type="Add" version="opset1">
			<input>
				<port id="0">
					<dim>1</dim>
					<dim>128</dim>
					<dim>28</dim>
					<dim>28</dim>
				</port>
				<port id="1">
					<dim>1</dim>
					<dim>128</dim>
					<dim>1</dim>
					<dim>1</dim>
				</port>
			</input>
			<output>
				<port id="2" precision="FP16">
					<dim>1</dim>
					<dim>128</dim>
					<dim>28</dim>
					<dim>28</dim>
				</port>
			</output>
		</layer>
		<layer id="331" name="resnet_model/Relu_17" type="ReLU" version="opset1">
			<input>
				<port id="0">
					<dim>1</dim>
					<dim>128</dim>
					<dim>28</dim>
					<dim>28</dim>
				</port>
			</input>
			<output>
				<port id="1" precision="FP16">
					<dim>1</dim>
					<dim>128</dim>
					<dim>28</dim>
					<dim>28</dim>
				</port>
			</output>
		</layer>
		<layer id="332" name="17911795_const" type="Const" version="opset1">
			<data element_type="f16" offset="19210" shape="" size="2"/>
			<output>
				<port id="1" precision="FP16"/>
			</output>
		</layer>
		<layer id="333" name="17921796_const" type="Const" version="opset1">
			<data element_type="f16" offset="2204232" shape="" size="2"/>
			<output>
				<port id="1" precision="FP16"/>
			</output>
		</layer>
		<layer id="334" name="17931797_const" type="Const" version="opset1">
			<data element_type="f16" offset="19210" shape="" size="2"/>
			<output>
				<port id="1" precision="FP16"/>
			</output>
		</layer>
		<layer id="335" name="17941798_const" type="Const" version="opset1">
			<data element_type="f16" offset="2204232" shape="" size="2"/>
			<output>
				<port id="1" precision="FP16"/>
			</output>
		</layer>
		<layer id="336" name="resnet_model/conv2d_20/Conv2D/fq_input_0" type="FakeQuantize" version="opset1">
			<data levels="256"/>
			<input>
				<port id="0">
					<dim>1</dim>
					<dim>128</dim>
					<dim>28</dim>
					<dim>28</dim>
				</port>
				<port id="1"/>
				<port id="2"/>
				<port id="3"/>
				<port id="4"/>
			</input>
			<output>
				<port id="5" precision="FP16">
					<dim>1</dim>
					<dim>128</dim>
					<dim>28</dim>
					<dim>28</dim>
				</port>
			</output>
		</layer>
		<layer id="337" name="Mul1_8545/Fused_Mul_1042210424_const401_const" type="Const" version="opset1">
			<data element_type="f16" offset="2204234" shape="512,128,1,1" size="131072"/>
			<output>
				<port id="1" precision="FP16">
					<dim>512</dim>
					<dim>128</dim>
					<dim>1</dim>
					<dim>1</dim>
				</port>
			</output>
		</layer>
		<layer id="338" name="18011805_const" type="Const" version="opset1">
			<data element_type="f16" offset="2335306" shape="512,1,1,1" size="1024"/>
			<output>
				<port id="1" precision="FP16">
					<dim>512</dim>
					<dim>1</dim>
					<dim>1</dim>
					<dim>1</dim>
				</port>
			</output>
		</layer>
		<layer id="339" name="18021806_const" type="Const" version="opset1">
			<data element_type="f16" offset="2336330" shape="512,1,1,1" size="1024"/>
			<output>
				<port id="1" precision="FP16">
					<dim>512</dim>
					<dim>1</dim>
					<dim>1</dim>
					<dim>1</dim>
				</port>
			</output>
		</layer>
		<layer id="340" name="18031807_const" type="Const" version="opset1">
			<data element_type="f16" offset="2335306" shape="512,1,1,1" size="1024"/>
			<output>
				<port id="1" precision="FP16">
					<dim>512</dim>
					<dim>1</dim>
					<dim>1</dim>
					<dim>1</dim>
				</port>
			</output>
		</layer>
		<layer id="341" name="18041808_const" type="Const" version="opset1">
			<data element_type="f16" offset="2336330" shape="512,1,1,1" size="1024"/>
			<output>
				<port id="1" precision="FP16">
					<dim>512</dim>
					<dim>1</dim>
					<dim>1</dim>
					<dim>1</dim>
				</port>
			</output>
		</layer>
		<layer id="342" name="resnet_model/conv2d_20/Conv2D/fq_weights_1" type="FakeQuantize" version="opset1">
			<data levels="255"/>
			<input>
				<port id="0">
					<dim>512</dim>
					<dim>128</dim>
					<dim>1</dim>
					<dim>1</dim>
				</port>
				<port id="1">
					<dim>512</dim>
					<dim>1</dim>
					<dim>1</dim>
					<dim>1</dim>
				</port>
				<port id="2">
					<dim>512</dim>
					<dim>1</dim>
					<dim>1</dim>
					<dim>1</dim>
				</port>
				<port id="3">
					<dim>512</dim>
					<dim>1</dim>
					<dim>1</dim>
					<dim>1</dim>
				</port>
				<port id="4">
					<dim>512</dim>
					<dim>1</dim>
					<dim>1</dim>
					<dim>1</dim>
				</port>
			</input>
			<output>
				<port id="5" precision="FP16">
					<dim>512</dim>
					<dim>128</dim>
					<dim>1</dim>
					<dim>1</dim>
				</port>
			</output>
		</layer>
		<layer id="343" name="resnet_model/conv2d_20/Conv2D" type="Convolution" version="opset1">
			<data auto_pad="same_upper" dilations="1,1" output_padding="0,0" pads_begin="0,0" pads_end="0,0" strides="1,1"/>
			<input>
				<port id="0">
					<dim>1</dim>
					<dim>128</dim>
					<dim>28</dim>
					<dim>28</dim>
				</port>
				<port id="1">
					<dim>512</dim>
					<dim>128</dim>
					<dim>1</dim>
					<dim>1</dim>
				</port>
			</input>
			<output>
				<port id="2" precision="FP16">
					<dim>1</dim>
					<dim>512</dim>
					<dim>28</dim>
					<dim>28</dim>
				</port>
			</output>
		</layer>
		<layer id="344" name="data_add_96429647/copy_const403_const" type="Const" version="opset1">
			<data element_type="f16" offset="2337354" shape="1,512,1,1" size="1024"/>
			<output>
				<port id="1" precision="FP16">
					<dim>1</dim>
					<dim>512</dim>
					<dim>1</dim>
					<dim>1</dim>
				</port>
			</output>
		</layer>
		<layer id="345" name="Add1_8546/Fused_Add_" type="Add" version="opset1">
			<input>
				<port id="0">
					<dim>1</dim>
					<dim>512</dim>
					<dim>28</dim>
					<dim>28</dim>
				</port>
				<port id="1">
					<dim>1</dim>
					<dim>512</dim>
					<dim>1</dim>
					<dim>1</dim>
				</port>
			</input>
			<output>
				<port id="2" precision="FP16">
					<dim>1</dim>
					<dim>512</dim>
					<dim>28</dim>
					<dim>28</dim>
				</port>
			</output>
		</layer>
		<layer id="346" name="18311835_const" type="Const" version="opset1">
			<data element_type="f16" offset="2338378" shape="" size="2"/>
			<output>
				<port id="1" precision="FP16"/>
			</output>
		</layer>
		<layer id="347" name="18321836_const" type="Const" version="opset1">
			<data element_type="f16" offset="2338380" shape="" size="2"/>
			<output>
				<port id="1" precision="FP16"/>
			</output>
		</layer>
		<layer id="348" name="18331837_const" type="Const" version="opset1">
			<data element_type="f16" offset="2338378" shape="" size="2"/>
			<output>
				<port id="1" precision="FP16"/>
			</output>
		</layer>
		<layer id="349" name="18341838_const" type="Const" version="opset1">
			<data element_type="f16" offset="2338380" shape="" size="2"/>
			<output>
				<port id="1" precision="FP16"/>
			</output>
		</layer>
		<layer id="350" name="resnet_model/add_5/fq_input_0" type="FakeQuantize" version="opset1">
			<data levels="256"/>
			<input>
				<port id="0">
					<dim>1</dim>
					<dim>512</dim>
					<dim>28</dim>
					<dim>28</dim>
				</port>
				<port id="1"/>
				<port id="2"/>
				<port id="3"/>
				<port id="4"/>
			</input>
			<output>
				<port id="5" precision="FP16">
					<dim>1</dim>
					<dim>512</dim>
					<dim>28</dim>
					<dim>28</dim>
				</port>
			</output>
		</layer>
		<layer id="351" name="resnet_model/add_5" type="Add" version="opset1">
			<input>
				<port id="0">
					<dim>1</dim>
					<dim>512</dim>
					<dim>28</dim>
					<dim>28</dim>
				</port>
				<port id="1">
					<dim>1</dim>
					<dim>512</dim>
					<dim>28</dim>
					<dim>28</dim>
				</port>
			</input>
			<output>
				<port id="2" precision="FP16">
					<dim>1</dim>
					<dim>512</dim>
					<dim>28</dim>
					<dim>28</dim>
				</port>
			</output>
		</layer>
		<layer id="352" name="resnet_model/Relu_18" type="ReLU" version="opset1">
			<input>
				<port id="0">
					<dim>1</dim>
					<dim>512</dim>
					<dim>28</dim>
					<dim>28</dim>
				</port>
			</input>
			<output>
				<port id="1" precision="FP16">
					<dim>1</dim>
					<dim>512</dim>
					<dim>28</dim>
					<dim>28</dim>
				</port>
			</output>
		</layer>
		<layer id="353" name="11011105_const" type="Const" version="opset1">
			<data element_type="f16" offset="19210" shape="" size="2"/>
			<output>
				<port id="1" precision="FP16"/>
			</output>
		</layer>
		<layer id="354" name="11021106_const" type="Const" version="opset1">
			<data element_type="f16" offset="1215034" shape="" size="2"/>
			<output>
				<port id="1" precision="FP16"/>
			</output>
		</layer>
		<layer id="355" name="11031107_const" type="Const" version="opset1">
			<data element_type="f16" offset="19210" shape="" size="2"/>
			<output>
				<port id="1" precision="FP16"/>
			</output>
		</layer>
		<layer id="356" name="11041108_const" type="Const" version="opset1">
			<data element_type="f16" offset="1215034" shape="" size="2"/>
			<output>
				<port id="1" precision="FP16"/>
			</output>
		</layer>
		<layer id="357" name="resnet_model/add_6/fq_input_1" type="FakeQuantize" version="opset1">
			<data levels="256"/>
			<input>
				<port id="0">
					<dim>1</dim>
					<dim>512</dim>
					<dim>28</dim>
					<dim>28</dim>
				</port>
				<port id="1"/>
				<port id="2"/>
				<port id="3"/>
				<port id="4"/>
			</input>
			<output>
				<port id="5" precision="FP16">
					<dim>1</dim>
					<dim>512</dim>
					<dim>28</dim>
					<dim>28</dim>
				</port>
			</output>
		</layer>
		<layer id="358" name="Mul1_8557/Fused_Mul_1042610428_const407_const" type="Const" version="opset1">
			<data element_type="f16" offset="2338382" shape="128,512,1,1" size="131072"/>
			<output>
				<port id="1" precision="FP16">
					<dim>128</dim>
					<dim>512</dim>
					<dim>1</dim>
					<dim>1</dim>
				</port>
			</output>
		</layer>
		<layer id="359" name="18611865_const" type="Const" version="opset1">
			<data element_type="f16" offset="2469454" shape="128,1,1,1" size="256"/>
			<output>
				<port id="1" precision="FP16">
					<dim>128</dim>
					<dim>1</dim>
					<dim>1</dim>
					<dim>1</dim>
				</port>
			</output>
		</layer>
		<layer id="360" name="18621866_const" type="Const" version="opset1">
			<data element_type="f16" offset="2469710" shape="128,1,1,1" size="256"/>
			<output>
				<port id="1" precision="FP16">
					<dim>128</dim>
					<dim>1</dim>
					<dim>1</dim>
					<dim>1</dim>
				</port>
			</output>
		</layer>
		<layer id="361" name="18631867_const" type="Const" version="opset1">
			<data element_type="f16" offset="2469454" shape="128,1,1,1" size="256"/>
			<output>
				<port id="1" precision="FP16">
					<dim>128</dim>
					<dim>1</dim>
					<dim>1</dim>
					<dim>1</dim>
				</port>
			</output>
		</layer>
		<layer id="362" name="18641868_const" type="Const" version="opset1">
			<data element_type="f16" offset="2469710" shape="128,1,1,1" size="256"/>
			<output>
				<port id="1" precision="FP16">
					<dim>128</dim>
					<dim>1</dim>
					<dim>1</dim>
					<dim>1</dim>
				</port>
			</output>
		</layer>
		<layer id="363" name="resnet_model/conv2d_21/Conv2D/fq_weights_1" type="FakeQuantize" version="opset1">
			<data levels="255"/>
			<input>
				<port id="0">
					<dim>128</dim>
					<dim>512</dim>
					<dim>1</dim>
					<dim>1</dim>
				</port>
				<port id="1">
					<dim>128</dim>
					<dim>1</dim>
					<dim>1</dim>
					<dim>1</dim>
				</port>
				<port id="2">
					<dim>128</dim>
					<dim>1</dim>
					<dim>1</dim>
					<dim>1</dim>
				</port>
				<port id="3">
					<dim>128</dim>
					<dim>1</dim>
					<dim>1</dim>
					<dim>1</dim>
				</port>
				<port id="4">
					<dim>128</dim>
					<dim>1</dim>
					<dim>1</dim>
					<dim>1</dim>
				</port>
			</input>
			<output>
				<port id="5" precision="FP16">
					<dim>128</dim>
					<dim>512</dim>
					<dim>1</dim>
					<dim>1</dim>
				</port>
			</output>
		</layer>
		<layer id="364" name="resnet_model/conv2d_21/Conv2D" type="Convolution" version="opset1">
			<data auto_pad="same_upper" dilations="1,1" output_padding="0,0" pads_begin="0,0" pads_end="0,0" strides="1,1"/>
			<input>
				<port id="0">
					<dim>1</dim>
					<dim>512</dim>
					<dim>28</dim>
					<dim>28</dim>
				</port>
				<port id="1">
					<dim>128</dim>
					<dim>512</dim>
					<dim>1</dim>
					<dim>1</dim>
				</port>
			</input>
			<output>
				<port id="2" precision="FP16">
					<dim>1</dim>
					<dim>128</dim>
					<dim>28</dim>
					<dim>28</dim>
				</port>
			</output>
		</layer>
		<layer id="365" name="data_add_96509655/copy_const409_const" type="Const" version="opset1">
			<data element_type="f16" offset="2469966" shape="1,128,1,1" size="256"/>
			<output>
				<port id="1" precision="FP16">
					<dim>1</dim>
					<dim>128</dim>
					<dim>1</dim>
					<dim>1</dim>
				</port>
			</output>
		</layer>
		<layer id="366" name="Add1_8558/Fused_Add_" type="Add" version="opset1">
			<input>
				<port id="0">
					<dim>1</dim>
					<dim>128</dim>
					<dim>28</dim>
					<dim>28</dim>
				</port>
				<port id="1">
					<dim>1</dim>
					<dim>128</dim>
					<dim>1</dim>
					<dim>1</dim>
				</port>
			</input>
			<output>
				<port id="2" precision="FP16">
					<dim>1</dim>
					<dim>128</dim>
					<dim>28</dim>
					<dim>28</dim>
				</port>
			</output>
		</layer>
		<layer id="367" name="resnet_model/Relu_19" type="ReLU" version="opset1">
			<input>
				<port id="0">
					<dim>1</dim>
					<dim>128</dim>
					<dim>28</dim>
					<dim>28</dim>
				</port>
			</input>
			<output>
				<port id="1" precision="FP16">
					<dim>1</dim>
					<dim>128</dim>
					<dim>28</dim>
					<dim>28</dim>
				</port>
			</output>
		</layer>
		<layer id="368" name="971975_const" type="Const" version="opset1">
			<data element_type="f16" offset="19210" shape="" size="2"/>
			<output>
				<port id="1" precision="FP16"/>
			</output>
		</layer>
		<layer id="369" name="972976_const" type="Const" version="opset1">
			<data element_type="f16" offset="2470222" shape="" size="2"/>
			<output>
				<port id="1" precision="FP16"/>
			</output>
		</layer>
		<layer id="370" name="973977_const" type="Const" version="opset1">
			<data element_type="f16" offset="19210" shape="" size="2"/>
			<output>
				<port id="1" precision="FP16"/>
			</output>
		</layer>
		<layer id="371" name="974978_const" type="Const" version="opset1">
			<data element_type="f16" offset="2470222" shape="" size="2"/>
			<output>
				<port id="1" precision="FP16"/>
			</output>
		</layer>
		<layer id="372" name="resnet_model/conv2d_22/Conv2D/fq_input_0" type="FakeQuantize" version="opset1">
			<data levels="256"/>
			<input>
				<port id="0">
					<dim>1</dim>
					<dim>128</dim>
					<dim>28</dim>
					<dim>28</dim>
				</port>
				<port id="1"/>
				<port id="2"/>
				<port id="3"/>
				<port id="4"/>
			</input>
			<output>
				<port id="5" precision="FP16">
					<dim>1</dim>
					<dim>128</dim>
					<dim>28</dim>
					<dim>28</dim>
				</port>
			</output>
		</layer>
		<layer id="373" name="Mul1_8569/Fused_Mul_1043010432_const412_const" type="Const" version="opset1">
			<data element_type="f16" offset="2470224" shape="128,128,3,3" size="294912"/>
			<output>
				<port id="1" precision="FP16">
					<dim>128</dim>
					<dim>128</dim>
					<dim>3</dim>
					<dim>3</dim>
				</port>
			</output>
		</layer>
		<layer id="374" name="981985_const" type="Const" version="opset1">
			<data element_type="f16" offset="2765136" shape="128,1,1,1" size="256"/>
			<output>
				<port id="1" precision="FP16">
					<dim>128</dim>
					<dim>1</dim>
					<dim>1</dim>
					<dim>1</dim>
				</port>
			</output>
		</layer>
		<layer id="375" name="982986_const" type="Const" version="opset1">
			<data element_type="f16" offset="2765392" shape="128,1,1,1" size="256"/>
			<output>
				<port id="1" precision="FP16">
					<dim>128</dim>
					<dim>1</dim>
					<dim>1</dim>
					<dim>1</dim>
				</port>
			</output>
		</layer>
		<layer id="376" name="983987_const" type="Const" version="opset1">
			<data element_type="f16" offset="2765136" shape="128,1,1,1" size="256"/>
			<output>
				<port id="1" precision="FP16">
					<dim>128</dim>
					<dim>1</dim>
					<dim>1</dim>
					<dim>1</dim>
				</port>
			</output>
		</layer>
		<layer id="377" name="984988_const" type="Const" version="opset1">
			<data element_type="f16" offset="2765392" shape="128,1,1,1" size="256"/>
			<output>
				<port id="1" precision="FP16">
					<dim>128</dim>
					<dim>1</dim>
					<dim>1</dim>
					<dim>1</dim>
				</port>
			</output>
		</layer>
		<layer id="378" name="resnet_model/conv2d_22/Conv2D/fq_weights_1" type="FakeQuantize" version="opset1">
			<data levels="255"/>
			<input>
				<port id="0">
					<dim>128</dim>
					<dim>128</dim>
					<dim>3</dim>
					<dim>3</dim>
				</port>
				<port id="1">
					<dim>128</dim>
					<dim>1</dim>
					<dim>1</dim>
					<dim>1</dim>
				</port>
				<port id="2">
					<dim>128</dim>
					<dim>1</dim>
					<dim>1</dim>
					<dim>1</dim>
				</port>
				<port id="3">
					<dim>128</dim>
					<dim>1</dim>
					<dim>1</dim>
					<dim>1</dim>
				</port>
				<port id="4">
					<dim>128</dim>
					<dim>1</dim>
					<dim>1</dim>
					<dim>1</dim>
				</port>
			</input>
			<output>
				<port id="5" precision="FP16">
					<dim>128</dim>
					<dim>128</dim>
					<dim>3</dim>
					<dim>3</dim>
				</port>
			</output>
		</layer>
		<layer id="379" name="resnet_model/conv2d_22/Conv2D" type="Convolution" version="opset1">
			<data auto_pad="same_upper" dilations="1,1" output_padding="0,0" pads_begin="1,1" pads_end="1,1" strides="1,1"/>
			<input>
				<port id="0">
					<dim>1</dim>
					<dim>128</dim>
					<dim>28</dim>
					<dim>28</dim>
				</port>
				<port id="1">
					<dim>128</dim>
					<dim>128</dim>
					<dim>3</dim>
					<dim>3</dim>
				</port>
			</input>
			<output>
				<port id="2" precision="FP16">
					<dim>1</dim>
					<dim>128</dim>
					<dim>28</dim>
					<dim>28</dim>
				</port>
			</output>
		</layer>
		<layer id="380" name="data_add_96589663/copy_const414_const" type="Const" version="opset1">
			<data element_type="f16" offset="2765648" shape="1,128,1,1" size="256"/>
			<output>
				<port id="1" precision="FP16">
					<dim>1</dim>
					<dim>128</dim>
					<dim>1</dim>
					<dim>1</dim>
				</port>
			</output>
		</layer>
		<layer id="381" name="Add1_8570/Fused_Add_" type="Add" version="opset1">
			<input>
				<port id="0">
					<dim>1</dim>
					<dim>128</dim>
					<dim>28</dim>
					<dim>28</dim>
				</port>
				<port id="1">
					<dim>1</dim>
					<dim>128</dim>
					<dim>1</dim>
					<dim>1</dim>
				</port>
			</input>
			<output>
				<port id="2" precision="FP16">
					<dim>1</dim>
					<dim>128</dim>
					<dim>28</dim>
					<dim>28</dim>
				</port>
			</output>
		</layer>
		<layer id="382" name="resnet_model/Relu_20" type="ReLU" version="opset1">
			<input>
				<port id="0">
					<dim>1</dim>
					<dim>128</dim>
					<dim>28</dim>
					<dim>28</dim>
				</port>
			</input>
			<output>
				<port id="1" precision="FP16">
					<dim>1</dim>
					<dim>128</dim>
					<dim>28</dim>
					<dim>28</dim>
				</port>
			</output>
		</layer>
		<layer id="383" name="12911295_const" type="Const" version="opset1">
			<data element_type="f16" offset="19210" shape="" size="2"/>
			<output>
				<port id="1" precision="FP16"/>
			</output>
		</layer>
		<layer id="384" name="12921296_const" type="Const" version="opset1">
			<data element_type="f16" offset="2765904" shape="" size="2"/>
			<output>
				<port id="1" precision="FP16"/>
			</output>
		</layer>
		<layer id="385" name="12931297_const" type="Const" version="opset1">
			<data element_type="f16" offset="19210" shape="" size="2"/>
			<output>
				<port id="1" precision="FP16"/>
			</output>
		</layer>
		<layer id="386" name="12941298_const" type="Const" version="opset1">
			<data element_type="f16" offset="2765904" shape="" size="2"/>
			<output>
				<port id="1" precision="FP16"/>
			</output>
		</layer>
		<layer id="387" name="resnet_model/conv2d_23/Conv2D/fq_input_0" type="FakeQuantize" version="opset1">
			<data levels="256"/>
			<input>
				<port id="0">
					<dim>1</dim>
					<dim>128</dim>
					<dim>28</dim>
					<dim>28</dim>
				</port>
				<port id="1"/>
				<port id="2"/>
				<port id="3"/>
				<port id="4"/>
			</input>
			<output>
				<port id="5" precision="FP16">
					<dim>1</dim>
					<dim>128</dim>
					<dim>28</dim>
					<dim>28</dim>
				</port>
			</output>
		</layer>
		<layer id="388" name="Mul1_8581/Fused_Mul_1043410436_const417_const" type="Const" version="opset1">
			<data element_type="f16" offset="2765906" shape="512,128,1,1" size="131072"/>
			<output>
				<port id="1" precision="FP16">
					<dim>512</dim>
					<dim>128</dim>
					<dim>1</dim>
					<dim>1</dim>
				</port>
			</output>
		</layer>
		<layer id="389" name="13011305_const" type="Const" version="opset1">
			<data element_type="f16" offset="2896978" shape="512,1,1,1" size="1024"/>
			<output>
				<port id="1" precision="FP16">
					<dim>512</dim>
					<dim>1</dim>
					<dim>1</dim>
					<dim>1</dim>
				</port>
			</output>
		</layer>
		<layer id="390" name="13021306_const" type="Const" version="opset1">
			<data element_type="f16" offset="2898002" shape="512,1,1,1" size="1024"/>
			<output>
				<port id="1" precision="FP16">
					<dim>512</dim>
					<dim>1</dim>
					<dim>1</dim>
					<dim>1</dim>
				</port>
			</output>
		</layer>
		<layer id="391" name="13031307_const" type="Const" version="opset1">
			<data element_type="f16" offset="2896978" shape="512,1,1,1" size="1024"/>
			<output>
				<port id="1" precision="FP16">
					<dim>512</dim>
					<dim>1</dim>
					<dim>1</dim>
					<dim>1</dim>
				</port>
			</output>
		</layer>
		<layer id="392" name="13041308_const" type="Const" version="opset1">
			<data element_type="f16" offset="2898002" shape="512,1,1,1" size="1024"/>
			<output>
				<port id="1" precision="FP16">
					<dim>512</dim>
					<dim>1</dim>
					<dim>1</dim>
					<dim>1</dim>
				</port>
			</output>
		</layer>
		<layer id="393" name="resnet_model/conv2d_23/Conv2D/fq_weights_1" type="FakeQuantize" version="opset1">
			<data levels="255"/>
			<input>
				<port id="0">
					<dim>512</dim>
					<dim>128</dim>
					<dim>1</dim>
					<dim>1</dim>
				</port>
				<port id="1">
					<dim>512</dim>
					<dim>1</dim>
					<dim>1</dim>
					<dim>1</dim>
				</port>
				<port id="2">
					<dim>512</dim>
					<dim>1</dim>
					<dim>1</dim>
					<dim>1</dim>
				</port>
				<port id="3">
					<dim>512</dim>
					<dim>1</dim>
					<dim>1</dim>
					<dim>1</dim>
				</port>
				<port id="4">
					<dim>512</dim>
					<dim>1</dim>
					<dim>1</dim>
					<dim>1</dim>
				</port>
			</input>
			<output>
				<port id="5" precision="FP16">
					<dim>512</dim>
					<dim>128</dim>
					<dim>1</dim>
					<dim>1</dim>
				</port>
			</output>
		</layer>
		<layer id="394" name="resnet_model/conv2d_23/Conv2D" type="Convolution" version="opset1">
			<data auto_pad="same_upper" dilations="1,1" output_padding="0,0" pads_begin="0,0" pads_end="0,0" strides="1,1"/>
			<input>
				<port id="0">
					<dim>1</dim>
					<dim>128</dim>
					<dim>28</dim>
					<dim>28</dim>
				</port>
				<port id="1">
					<dim>512</dim>
					<dim>128</dim>
					<dim>1</dim>
					<dim>1</dim>
				</port>
			</input>
			<output>
				<port id="2" precision="FP16">
					<dim>1</dim>
					<dim>512</dim>
					<dim>28</dim>
					<dim>28</dim>
				</port>
			</output>
		</layer>
		<layer id="395" name="data_add_96669671/copy_const419_const" type="Const" version="opset1">
			<data element_type="f16" offset="2899026" shape="1,512,1,1" size="1024"/>
			<output>
				<port id="1" precision="FP16">
					<dim>1</dim>
					<dim>512</dim>
					<dim>1</dim>
					<dim>1</dim>
				</port>
			</output>
		</layer>
		<layer id="396" name="Add1_8582/Fused_Add_" type="Add" version="opset1">
			<input>
				<port id="0">
					<dim>1</dim>
					<dim>512</dim>
					<dim>28</dim>
					<dim>28</dim>
				</port>
				<port id="1">
					<dim>1</dim>
					<dim>512</dim>
					<dim>1</dim>
					<dim>1</dim>
				</port>
			</input>
			<output>
				<port id="2" precision="FP16">
					<dim>1</dim>
					<dim>512</dim>
					<dim>28</dim>
					<dim>28</dim>
				</port>
			</output>
		</layer>
		<layer id="397" name="10911095_const" type="Const" version="opset1">
			<data element_type="f16" offset="2900050" shape="" size="2"/>
			<output>
				<port id="1" precision="FP16"/>
			</output>
		</layer>
		<layer id="398" name="10921096_const" type="Const" version="opset1">
			<data element_type="f16" offset="2900052" shape="" size="2"/>
			<output>
				<port id="1" precision="FP16"/>
			</output>
		</layer>
		<layer id="399" name="10931097_const" type="Const" version="opset1">
			<data element_type="f16" offset="2900050" shape="" size="2"/>
			<output>
				<port id="1" precision="FP16"/>
			</output>
		</layer>
		<layer id="400" name="10941098_const" type="Const" version="opset1">
			<data element_type="f16" offset="2900052" shape="" size="2"/>
			<output>
				<port id="1" precision="FP16"/>
			</output>
		</layer>
		<layer id="401" name="resnet_model/add_6/fq_input_0" type="FakeQuantize" version="opset1">
			<data levels="256"/>
			<input>
				<port id="0">
					<dim>1</dim>
					<dim>512</dim>
					<dim>28</dim>
					<dim>28</dim>
				</port>
				<port id="1"/>
				<port id="2"/>
				<port id="3"/>
				<port id="4"/>
			</input>
			<output>
				<port id="5" precision="FP16">
					<dim>1</dim>
					<dim>512</dim>
					<dim>28</dim>
					<dim>28</dim>
				</port>
			</output>
		</layer>
		<layer id="402" name="resnet_model/add_6" type="Add" version="opset1">
			<input>
				<port id="0">
					<dim>1</dim>
					<dim>512</dim>
					<dim>28</dim>
					<dim>28</dim>
				</port>
				<port id="1">
					<dim>1</dim>
					<dim>512</dim>
					<dim>28</dim>
					<dim>28</dim>
				</port>
			</input>
			<output>
				<port id="2" precision="FP16">
					<dim>1</dim>
					<dim>512</dim>
					<dim>28</dim>
					<dim>28</dim>
				</port>
			</output>
		</layer>
		<layer id="403" name="resnet_model/Relu_21" type="ReLU" version="opset1">
			<input>
				<port id="0">
					<dim>1</dim>
					<dim>512</dim>
					<dim>28</dim>
					<dim>28</dim>
				</port>
			</input>
			<output>
				<port id="1" precision="FP16">
					<dim>1</dim>
					<dim>512</dim>
					<dim>28</dim>
					<dim>28</dim>
				</port>
			</output>
		</layer>
		<layer id="404" name="19211925_const" type="Const" version="opset1">
			<data element_type="f16" offset="19210" shape="" size="2"/>
			<output>
				<port id="1" precision="FP16"/>
			</output>
		</layer>
		<layer id="405" name="19221926_const" type="Const" version="opset1">
			<data element_type="f16" offset="2900054" shape="" size="2"/>
			<output>
				<port id="1" precision="FP16"/>
			</output>
		</layer>
		<layer id="406" name="19231927_const" type="Const" version="opset1">
			<data element_type="f16" offset="19210" shape="" size="2"/>
			<output>
				<port id="1" precision="FP16"/>
			</output>
		</layer>
		<layer id="407" name="19241928_const" type="Const" version="opset1">
			<data element_type="f16" offset="2900054" shape="" size="2"/>
			<output>
				<port id="1" precision="FP16"/>
			</output>
		</layer>
		<layer id="408" name="resnet_model/conv2d_24/Conv2D/fq_input_0" type="FakeQuantize" version="opset1">
			<data levels="256"/>
			<input>
				<port id="0">
					<dim>1</dim>
					<dim>512</dim>
					<dim>28</dim>
					<dim>28</dim>
				</port>
				<port id="1"/>
				<port id="2"/>
				<port id="3"/>
				<port id="4"/>
			</input>
			<output>
				<port id="5" precision="FP16">
					<dim>1</dim>
					<dim>512</dim>
					<dim>28</dim>
					<dim>28</dim>
				</port>
			</output>
		</layer>
		<layer id="409" name="Mul1_8605/Fused_Mul_1043810440_const423_const" type="Const" version="opset1">
			<data element_type="f16" offset="2900056" shape="256,512,1,1" size="262144"/>
			<output>
				<port id="1" precision="FP16">
					<dim>256</dim>
					<dim>512</dim>
					<dim>1</dim>
					<dim>1</dim>
				</port>
			</output>
		</layer>
		<layer id="410" name="20512055_const" type="Const" version="opset1">
			<data element_type="f16" offset="3162200" shape="256,1,1,1" size="512"/>
			<output>
				<port id="1" precision="FP16">
					<dim>256</dim>
					<dim>1</dim>
					<dim>1</dim>
					<dim>1</dim>
				</port>
			</output>
		</layer>
		<layer id="411" name="20522056_const" type="Const" version="opset1">
			<data element_type="f16" offset="3162712" shape="256,1,1,1" size="512"/>
			<output>
				<port id="1" precision="FP16">
					<dim>256</dim>
					<dim>1</dim>
					<dim>1</dim>
					<dim>1</dim>
				</port>
			</output>
		</layer>
		<layer id="412" name="20532057_const" type="Const" version="opset1">
			<data element_type="f16" offset="3162200" shape="256,1,1,1" size="512"/>
			<output>
				<port id="1" precision="FP16">
					<dim>256</dim>
					<dim>1</dim>
					<dim>1</dim>
					<dim>1</dim>
				</port>
			</output>
		</layer>
		<layer id="413" name="20542058_const" type="Const" version="opset1">
			<data element_type="f16" offset="3162712" shape="256,1,1,1" size="512"/>
			<output>
				<port id="1" precision="FP16">
					<dim>256</dim>
					<dim>1</dim>
					<dim>1</dim>
					<dim>1</dim>
				</port>
			</output>
		</layer>
		<layer id="414" name="resnet_model/conv2d_25/Conv2D/fq_weights_1" type="FakeQuantize" version="opset1">
			<data levels="255"/>
			<input>
				<port id="0">
					<dim>256</dim>
					<dim>512</dim>
					<dim>1</dim>
					<dim>1</dim>
				</port>
				<port id="1">
					<dim>256</dim>
					<dim>1</dim>
					<dim>1</dim>
					<dim>1</dim>
				</port>
				<port id="2">
					<dim>256</dim>
					<dim>1</dim>
					<dim>1</dim>
					<dim>1</dim>
				</port>
				<port id="3">
					<dim>256</dim>
					<dim>1</dim>
					<dim>1</dim>
					<dim>1</dim>
				</port>
				<port id="4">
					<dim>256</dim>
					<dim>1</dim>
					<dim>1</dim>
					<dim>1</dim>
				</port>
			</input>
			<output>
				<port id="5" precision="FP16">
					<dim>256</dim>
					<dim>512</dim>
					<dim>1</dim>
					<dim>1</dim>
				</port>
			</output>
		</layer>
		<layer id="415" name="resnet_model/conv2d_25/Conv2D" type="Convolution" version="opset1">
			<data auto_pad="same_upper" dilations="1,1" output_padding="0,0" pads_begin="0,0" pads_end="0,0" strides="1,1"/>
			<input>
				<port id="0">
					<dim>1</dim>
					<dim>512</dim>
					<dim>28</dim>
					<dim>28</dim>
				</port>
				<port id="1">
					<dim>256</dim>
					<dim>512</dim>
					<dim>1</dim>
					<dim>1</dim>
				</port>
			</input>
			<output>
				<port id="2" precision="FP16">
					<dim>1</dim>
					<dim>256</dim>
					<dim>28</dim>
					<dim>28</dim>
				</port>
			</output>
		</layer>
		<layer id="416" name="data_add_96749679/copy_const425_const" type="Const" version="opset1">
			<data element_type="f16" offset="3163224" shape="1,256,1,1" size="512"/>
			<output>
				<port id="1" precision="FP16">
					<dim>1</dim>
					<dim>256</dim>
					<dim>1</dim>
					<dim>1</dim>
				</port>
			</output>
		</layer>
		<layer id="417" name="Add1_8606/Fused_Add_" type="Add" version="opset1">
			<input>
				<port id="0">
					<dim>1</dim>
					<dim>256</dim>
					<dim>28</dim>
					<dim>28</dim>
				</port>
				<port id="1">
					<dim>1</dim>
					<dim>256</dim>
					<dim>1</dim>
					<dim>1</dim>
				</port>
			</input>
			<output>
				<port id="2" precision="FP16">
					<dim>1</dim>
					<dim>256</dim>
					<dim>28</dim>
					<dim>28</dim>
				</port>
			</output>
		</layer>
		<layer id="418" name="resnet_model/Relu_22" type="ReLU" version="opset1">
			<input>
				<port id="0">
					<dim>1</dim>
					<dim>256</dim>
					<dim>28</dim>
					<dim>28</dim>
				</port>
			</input>
			<output>
				<port id="1" precision="FP16">
					<dim>1</dim>
					<dim>256</dim>
					<dim>28</dim>
					<dim>28</dim>
				</port>
			</output>
		</layer>
		<layer id="419" name="12311235_const" type="Const" version="opset1">
			<data element_type="f16" offset="19210" shape="" size="2"/>
			<output>
				<port id="1" precision="FP16"/>
			</output>
		</layer>
		<layer id="420" name="12321236_const" type="Const" version="opset1">
			<data element_type="f16" offset="3163736" shape="" size="2"/>
			<output>
				<port id="1" precision="FP16"/>
			</output>
		</layer>
		<layer id="421" name="12331237_const" type="Const" version="opset1">
			<data element_type="f16" offset="19210" shape="" size="2"/>
			<output>
…
		<edge from-layer="222" from-port="1" to-layer="226" to-port="1"/>
		<edge from-layer="223" from-port="1" to-layer="226" to-port="2"/>
		<edge from-layer="224" from-port="1" to-layer="226" to-port="3"/>
		<edge from-layer="225" from-port="1" to-layer="226" to-port="4"/>
		<edge from-layer="220" from-port="5" to-layer="227" to-port="0"/>
		<edge from-layer="226" from-port="5" to-layer="227" to-port="1"/>
		<edge from-layer="227" from-port="2" to-layer="229" to-port="0"/>
		<edge from-layer="228" from-port="1" to-layer="229" to-port="1"/>
		<edge from-layer="229" from-port="2" to-layer="234" to-port="0"/>
		<edge from-layer="230" from-port="1" to-layer="234" to-port="1"/>
		<edge from-layer="231" from-port="1" to-layer="234" to-port="2"/>
		<edge from-layer="232" from-port="1" to-layer="234" to-port="3"/>
		<edge from-layer="233" from-port="1" to-layer="234" to-port="4"/>
		<edge from-layer="235" from-port="1" to-layer="240" to-port="0"/>
		<edge from-layer="236" from-port="1" to-layer="240" to-port="1"/>
		<edge from-layer="237" from-port="1" to-layer="240" to-port="2"/>
		<edge from-layer="238" from-port="1" to-layer="240" to-port="3"/>
		<edge from-layer="239" from-port="1" to-layer="240" to-port="4"/>
		<edge from-layer="190" from-port="5" to-layer="241" to-port="0"/>
		<edge from-layer="240" from-port="5" to-layer="241" to-port="1"/>
		<edge from-layer="241" from-port="2" to-layer="243" to-port="0"/>
		<edge from-layer="242" from-port="1" to-layer="243" to-port="1"/>
		<edge from-layer="243" from-port="2" to-layer="248" to-port="0"/>
		<edge from-layer="244" from-port="1" to-layer="248" to-port="1"/>
		<edge from-layer="245" from-port="1" to-layer="248" to-port="2"/>
		<edge from-layer="246" from-port="1" to-layer="248" to-port="3"/>
		<edge from-layer="247" from-port="1" to-layer="248" to-port="4"/>
		<edge from-layer="234" from-port="5" to-layer="249" to-port="0"/>
		<edge from-layer="248" from-port="5" to-layer="249" to-port="1"/>
		<edge from-layer="249" from-port="2" to-layer="250" to-port="0"/>
		<edge from-layer="250" from-port="1" to-layer="255" to-port="0"/>
		<edge from-layer="251" from-port="1" to-layer="255" to-port="1"/>
		<edge from-layer="252" from-port="1" to-layer="255" to-port="2"/>
		<edge from-layer="253" from-port="1" to-layer="255" to-port="3"/>
		<edge from-layer="254" from-port="1" to-layer="255" to-port="4"/>
		<edge from-layer="256" from-port="1" to-layer="261" to-port="0"/>
		<edge from-layer="257" from-port="1" to-layer="261" to-port="1"/>
		<edge from-layer="258" from-port="1" to-layer="261" to-port="2"/>
		<edge from-layer="259" from-port="1" to-layer="261" to-port="3"/>
		<edge from-layer="260" from-port="1" to-layer="261" to-port="4"/>
		<edge from-layer="255" from-port="5" to-layer="262" to-port="0"/>
		<edge from-layer="261" from-port="5" to-layer="262" to-port="1"/>
		<edge from-layer="262" from-port="2" to-layer="264" to-port="0"/>
		<edge from-layer="263" from-port="1" to-layer="264" to-port="1"/>
		<edge from-layer="264" from-port="2" to-layer="265" to-port="0"/>
		<edge from-layer="265" from-port="1" to-layer="270" to-port="0"/>
		<edge from-layer="266" from-port="1" to-layer="270" to-port="1"/>
		<edge from-layer="267" from-port="1" to-layer="270" to-port="2"/>
		<edge from-layer="268" from-port="1" to-layer="270" to-port="3"/>
		<edge from-layer="269" from-port="1" to-layer="270" to-port="4"/>
		<edge from-layer="271" from-port="1" to-layer="276" to-port="0"/>
		<edge from-layer="272" from-port="1" to-layer="276" to-port="1"/>
		<edge from-layer="273" from-port="1" to-layer="276" to-port="2"/>
		<edge from-layer="274" from-port="1" to-layer="276" to-port="3"/>
		<edge from-layer="275" from-port="1" to-layer="276" to-port="4"/>
		<edge from-layer="270" from-port="5" to-layer="277" to-port="0"/>
		<edge from-layer="276" from-port="5" to-layer="277" to-port="1"/>
		<edge from-layer="277" from-port="2" to-layer="279" to-port="0"/>
		<edge from-layer="278" from-port="1" to-layer="279" to-port="1"/>
		<edge from-layer="279" from-port="2" to-layer="280" to-port="0"/>
		<edge from-layer="280" from-port="1" to-layer="285" to-port="0"/>
		<edge from-layer="281" from-port="1" to-layer="285" to-port="1"/>
		<edge from-layer="282" from-port="1" to-layer="285" to-port="2"/>
		<edge from-layer="283" from-port="1" to-layer="285" to-port="3"/>
		<edge from-layer="284" from-port="1" to-layer="285" to-port="4"/>
		<edge from-layer="286" from-port="1" to-layer="291" to-port="0"/>
		<edge from-layer="287" from-port="1" to-layer="291" to-port="1"/>
		<edge from-layer="288" from-port="1" to-layer="291" to-port="2"/>
		<edge from-layer="289" from-port="1" to-layer="291" to-port="3"/>
		<edge from-layer="290" from-port="1" to-layer="291" to-port="4"/>
		<edge from-layer="285" from-port="5" to-layer="292" to-port="0"/>
		<edge from-layer="291" from-port="5" to-layer="292" to-port="1"/>
		<edge from-layer="292" from-port="2" to-layer="294" to-port="0"/>
		<edge from-layer="293" from-port="1" to-layer="294" to-port="1"/>
		<edge from-layer="294" from-port="2" to-layer="299" to-port="0"/>
		<edge from-layer="295" from-port="1" to-layer="299" to-port="1"/>
		<edge from-layer="296" from-port="1" to-layer="299" to-port="2"/>
		<edge from-layer="297" from-port="1" to-layer="299" to-port="3"/>
		<edge from-layer="298" from-port="1" to-layer="299" to-port="4"/>
		<edge from-layer="299" from-port="5" to-layer="300" to-port="0"/>
		<edge from-layer="255" from-port="5" to-layer="300" to-port="1"/>
		<edge from-layer="300" from-port="2" to-layer="301" to-port="0"/>
		<edge from-layer="301" from-port="1" to-layer="306" to-port="0"/>
		<edge from-layer="302" from-port="1" to-layer="306" to-port="1"/>
		<edge from-layer="303" from-port="1" to-layer="306" to-port="2"/>
		<edge from-layer="304" from-port="1" to-layer="306" to-port="3"/>
		<edge from-layer="305" from-port="1" to-layer="306" to-port="4"/>
		<edge from-layer="307" from-port="1" to-layer="312" to-port="0"/>
		<edge from-layer="308" from-port="1" to-layer="312" to-port="1"/>
		<edge from-layer="309" from-port="1" to-layer="312" to-port="2"/>
		<edge from-layer="310" from-port="1" to-layer="312" to-port="3"/>
		<edge from-layer="311" from-port="1" to-layer="312" to-port="4"/>
		<edge from-layer="306" from-port="5" to-layer="313" to-port="0"/>
		<edge from-layer="312" from-port="5" to-layer="313" to-port="1"/>
		<edge from-layer="313" from-port="2" to-layer="315" to-port="0"/>
		<edge from-layer="314" from-port="1" to-layer="315" to-port="1"/>
		<edge from-layer="315" from-port="2" to-layer="316" to-port="0"/>
		<edge from-layer="316" from-port="1" to-layer="321" to-port="0"/>
		<edge from-layer="317" from-port="1" to-layer="321" to-port="1"/>
		<edge from-layer="318" from-port="1" to-layer="321" to-port="2"/>
		<edge from-layer="319" from-port="1" to-layer="321" to-port="3"/>
		<edge from-layer="320" from-port="1" to-layer="321" to-port="4"/>
		<edge from-layer="322" from-port="1" to-layer="327" to-port="0"/>
		<edge from-layer="323" from-port="1" to-layer="327" to-port="1"/>
		<edge from-layer="324" from-port="1" to-layer="327" to-port="2"/>
		<edge from-layer="325" from-port="1" to-layer="327" to-port="3"/>
		<edge from-layer="326" from-port="1" to-layer="327" to-port="4"/>
		<edge from-layer="321" from-port="5" to-layer="328" to-port="0"/>
		<edge from-layer="327" from-port="5" to-layer="328" to-port="1"/>
		<edge from-layer="328" from-port="2" to-layer="330" to-port="0"/>
		<edge from-layer="329" from-port="1" to-layer="330" to-port="1"/>
		<edge from-layer="330" from-port="2" to-layer="331" to-port="0"/>
		<edge from-layer="331" from-port="1" to-layer="336" to-port="0"/>
		<edge from-layer="332" from-port="1" to-layer="336" to-port="1"/>
		<edge from-layer="333" from-port="1" to-layer="336" to-port="2"/>
		<edge from-layer="334" from-port="1" to-layer="336" to-port="3"/>
		<edge from-layer="335" from-port="1" to-layer="336" to-port="4"/>
		<edge from-layer="337" from-port="1" to-layer="342" to-port="0"/>
		<edge from-layer="338" from-port="1" to-layer="342" to-port="1"/>
		<edge from-layer="339" from-port="1" to-layer="342" to-port="2"/>
		<edge from-layer="340" from-port="1" to-layer="342" to-port="3"/>
		<edge from-layer="341" from-port="1" to-layer="342" to-port="4"/>
		<edge from-layer="336" from-port="5" to-layer="343" to-port="0"/>
		<edge from-layer="342" from-port="5" to-layer="343" to-port="1"/>
		<edge from-layer="343" from-port="2" to-layer="345" to-port="0"/>
		<edge from-layer="344" from-port="1" to-layer="345" to-port="1"/>
		<edge from-layer="345" from-port="2" to-layer="350" to-port="0"/>
		<edge from-layer="346" from-port="1" to-layer="350" to-port="1"/>
		<edge from-layer="347" from-port="1" to-layer="350" to-port="2"/>
		<edge from-layer="348" from-port="1" to-layer="350" to-port="3"/>
		<edge from-layer="349" from-port="1" to-layer="350" to-port="4"/>
		<edge from-layer="350" from-port="5" to-layer="351" to-port="0"/>
		<edge from-layer="306" from-port="5" to-layer="351" to-port="1"/>
		<edge from-layer="351" from-port="2" to-layer="352" to-port="0"/>
		<edge from-layer="352" from-port="1" to-layer="357" to-port="0"/>
		<edge from-layer="353" from-port="1" to-layer="357" to-port="1"/>
		<edge from-layer="354" from-port="1" to-layer="357" to-port="2"/>
		<edge from-layer="355" from-port="1" to-layer="357" to-port="3"/>
		<edge from-layer="356" from-port="1" to-layer="357" to-port="4"/>
		<edge from-layer="358" from-port="1" to-layer="363" to-port="0"/>
		<edge from-layer="359" from-port="1" to-layer="363" to-port="1"/>
		<edge from-layer="360" from-port="1" to-layer="363" to-port="2"/>
		<edge from-layer="361" from-port="1" to-layer="363" to-port="3"/>
		<edge from-layer="362" from-port="1" to-layer="363" to-port="4"/>
		<edge from-layer="357" from-port="5" to-layer="364" to-port="0"/>
		<edge from-layer="363" from-port="5" to-layer="364" to-port="1"/>
		<edge from-layer="364" from-port="2" to-layer="366" to-port="0"/>
		<edge from-layer="365" from-port="1" to-layer="366" to-port="1"/>
		<edge from-layer="366" from-port="2" to-layer="367" to-port="0"/>
		<edge from-layer="367" from-port="1" to-layer="372" to-port="0"/>
		<edge from-layer="368" from-port="1" to-layer="372" to-port="1"/>
		<edge from-layer="369" from-port="1" to-layer="372" to-port="2"/>
		<edge from-layer="370" from-port="1" to-layer="372" to-port="3"/>
		<edge from-layer="371" from-port="1" to-layer="372" to-port="4"/>
		<edge from-layer="373" from-port="1" to-layer="378" to-port="0"/>
		<edge from-layer="374" from-port="1" to-layer="378" to-port="1"/>
		<edge from-layer="375" from-port="1" to-layer="378" to-port="2"/>
		<edge from-layer="376" from-port="1" to-layer="378" to-port="3"/>
		<edge from-layer="377" from-port="1" to-layer="378" to-port="4"/>
		<edge from-layer="372" from-port="5" to-layer="379" to-port="0"/>
		<edge from-layer="378" from-port="5" to-layer="379" to-port="1"/>
		<edge from-layer="379" from-port="2" to-layer="381" to-port="0"/>
		<edge from-layer="380" from-port="1" to-layer="381" to-port="1"/>
		<edge from-layer="381" from-port="2" to-layer="382" to-port="0"/>
		<edge from-layer="382" from-port="1" to-layer="387" to-port="0"/>
		<edge from-layer="383" from-port="1" to-layer="387" to-port="1"/>
		<edge from-layer="384" from-port="1" to-layer="387" to-port="2"/>
		<edge from-layer="385" from-port="1" to-layer="387" to-port="3"/>
		<edge from-layer="386" from-port="1" to-layer="387" to-port="4"/>
		<edge from-layer="388" from-port="1" to-layer="393" to-port="0"/>
		<edge from-layer="389" from-port="1" to-layer="393" to-port="1"/>
		<edge from-layer="390" from-port="1" to-layer="393" to-port="2"/>
		<edge from-layer="391" from-port="1" to-layer="393" to-port="3"/>
		<edge from-layer="392" from-port="1" to-layer="393" to-port="4"/>
		<edge from-layer="387" from-port="5" to-layer="394" to-port="0"/>
		<edge from-layer="393" from-port="5" to-layer="394" to-port="1"/>
		<edge from-layer="394" from-port="2" to-layer="396" to-port="0"/>
		<edge from-layer="395" from-port="1" to-layer="396" to-port="1"/>
		<edge from-layer="396" from-port="2" to-layer="401" to-port="0"/>
		<edge from-layer="397" from-port="1" to-layer="401" to-port="1"/>
		<edge from-layer="398" from-port="1" to-layer="401" to-port="2"/>
		<edge from-layer="399" from-port="1" to-layer="401" to-port="3"/>
		<edge from-layer="400" from-port="1" to-layer="401" to-port="4"/>
		<edge from-layer="401" from-port="5" to-layer="402" to-port="0"/>
		<edge from-layer="357" from-port="5" to-layer="402" to-port="1"/>
		<edge from-layer="402" from-port="2" to-layer="403" to-port="0"/>
		<edge from-layer="403" from-port="1" to-layer="408" to-port="0"/>
		<edge from-layer="404" from-port="1" to-layer="408" to-port="1"/>
		<edge from-layer="405" from-port="1" to-layer="408" to-port="2"/>
		<edge from-layer="406" from-port="1" to-layer="408" to-port="3"/>
		<edge from-layer="407" from-port="1" to-layer="408" to-port="4"/>
		<edge from-layer="409" from-port="1" to-layer="414" to-port="0"/>
		<edge from-layer="410" from-port="1" to-layer="414" to-port="1"/>
		<edge from-layer="411" from-port="1" to-layer="414" to-port="2"/>
		<edge from-layer="412" from-port="1" to-layer="414" to-port="3"/>
		<edge from-layer="413" from-port="1" to-layer="414" to-port="4"/>
		<edge from-layer="408" from-port="5" to-layer="415" to-port="0"/>
		<edge from-layer="414" from-port="5" to-layer="415" to-port="1"/>
		<edge from-layer="415" from-port="2" to-layer="417" to-port="0"/>
		<edge from-layer="416" from-port="1" to-layer="417" to-port="1"/>
		<edge from-layer="417" from-port="2" to-layer="418" to-port="0"/>
		<edge from-layer="418" from-port="1" to-layer="423" to-port="0"/>
		<edge from-layer="419" from-port="1" to-layer="423" to-port="1"/>
		<edge from-layer="420" from-port="1" to-layer="423" to-port="2"/>
		<edge from-layer="421" from-port="1" to-layer="423" to-port="3"/>
		<edge from-layer="422" from-port="1" to-layer="423" to-port="4"/>
		<edge from-layer="424" from-port="1" to-layer="429" to-port="0"/>
		<edge from-layer="425" from-port="1" to-layer="429" to-port="1"/>
		<edge from-layer="426" from-port="1" to-layer="429" to-port="2"/>
		<edge from-layer="427" from-port="1" to-layer="429" to-port="3"/>
		<edge from-layer="428" from-port="1" to-layer="429" to-port="4"/>
		<edge from-layer="423" from-port="5" to-layer="430" to-port="0"/>
		<edge from-layer="429" from-port="5" to-layer="430" to-port="1"/>
		<edge from-layer="430" from-port="2" to-layer="432" to-port="0"/>
		<edge from-layer="431" from-port="1" to-layer="432" to-port="1"/>
		<edge from-layer="432" from-port="2" to-layer="433" to-port="0"/>
		<edge from-layer="433" from-port="1" to-layer="438" to-port="0"/>
		<edge from-layer="434" from-port="1" to-layer="438" to-port="1"/>
		<edge from-layer="435" from-port="1" to-layer="438" to-port="2"/>
		<edge from-layer="436" from-port="1" to-layer="438" to-port="3"/>
		<edge from-layer="437" from-port="1" to-layer="438" to-port="4"/>
		<edge from-layer="439" from-port="1" to-layer="444" to-port="0"/>
		<edge from-layer="440" from-port="1" to-layer="444" to-port="1"/>
		<edge from-layer="441" from-port="1" to-layer="444" to-port="2"/>
		<edge from-layer="442" from-port="1" to-layer="444" to-port="3"/>
		<edge from-layer="443" from-port="1" to-layer="444" to-port="4"/>
		<edge from-layer="438" from-port="5" to-layer="445" to-port="0"/>
		<edge from-layer="444" from-port="5" to-layer="445" to-port="1"/>
		<edge from-layer="445" from-port="2" to-layer="447" to-port="0"/>
		<edge from-layer="446" from-port="1" to-layer="447" to-port="1"/>
		<edge from-layer="447" from-port="2" to-layer="452" to-port="0"/>
		<edge from-layer="448" from-port="1" to-layer="452" to-port="1"/>
		<edge from-layer="449" from-port="1" to-layer="452" to-port="2"/>
		<edge from-layer="450" from-port="1" to-layer="452" to-port="3"/>
		<edge from-layer="451" from-port="1" to-layer="452" to-port="4"/>
		<edge from-layer="453" from-port="1" to-layer="458" to-port="0"/>
		<edge from-layer="454" from-port="1" to-layer="458" to-port="1"/>
		<edge from-layer="455" from-port="1" to-layer="458" to-port="2"/>
		<edge from-layer="456" from-port="1" to-layer="458" to-port="3"/>
		<edge from-layer="457" from-port="1" to-layer="458" to-port="4"/>
		<edge from-layer="408" from-port="5" to-layer="459" to-port="0"/>
		<edge from-layer="458" from-port="5" to-layer="459" to-port="1"/>
		<edge from-layer="459" from-port="2" to-layer="461" to-port="0"/>
		<edge from-layer="460" from-port="1" to-layer="461" to-port="1"/>
		<edge from-layer="461" from-port="2" to-layer="466" to-port="0"/>
		<edge from-layer="462" from-port="1" to-layer="466" to-port="1"/>
		<edge from-layer="463" from-port="1" to-layer="466" to-port="2"/>
		<edge from-layer="464" from-port="1" to-layer="466" to-port="3"/>
		<edge from-layer="465" from-port="1" to-layer="466" to-port="4"/>
		<edge from-layer="452" from-port="5" to-layer="467" to-port="0"/>
		<edge from-layer="466" from-port="5" to-layer="467" to-port="1"/>
		<edge from-layer="467" from-port="2" to-layer="468" to-port="0"/>
		<edge from-layer="468" from-port="1" to-layer="473" to-port="0"/>
		<edge from-layer="469" from-port="1" to-layer="473" to-port="1"/>
		<edge from-layer="470" from-port="1" to-layer="473" to-port="2"/>
		<edge from-layer="471" from-port="1" to-layer="473" to-port="3"/>
		<edge from-layer="472" from-port="1" to-layer="473" to-port="4"/>
		<edge from-layer="474" from-port="1" to-layer="479" to-port="0"/>
		<edge from-layer="475" from-port="1" to-layer="479" to-port="1"/>
		<edge from-layer="476" from-port="1" to-layer="479" to-port="2"/>
		<edge from-layer="477" from-port="1" to-layer="479" to-port="3"/>
		<edge from-layer="478" from-port="1" to-layer="479" to-port="4"/>
		<edge from-layer="473" from-port="5" to-layer="480" to-port="0"/>
		<edge from-layer="479" from-port="5" to-layer="480" to-port="1"/>
		<edge from-layer="480" from-port="2" to-layer="482" to-port="0"/>
		<edge from-layer="481" from-port="1" to-layer="482" to-port="1"/>
		<edge from-layer="482" from-port="2" to-layer="483" to-port="0"/>
		<edge from-layer="483" from-port="1" to-layer="488" to-port="0"/>
		<edge from-layer="484" from-port="1" to-layer="488" to-port="1"/>
		<edge from-layer="485" from-port="1" to-layer="488" to-port="2"/>
		<edge from-layer="486" from-port="1" to-layer="488" to-port="3"/>
		<edge from-layer="487" from-port="1" to-layer="488" to-port="4"/>
		<edge from-layer="489" from-port="1" to-layer="494" to-port="0"/>
		<edge from-layer="490" from-port="1" to-layer="494" to-port="1"/>
		<edge from-layer="491" from-port="1" to-layer="494" to-port="2"/>
		<edge from-layer="492" from-port="1" to-layer="494" to-port="3"/>
		<edge from-layer="493" from-port="1" to-layer="494" to-port="4"/>
		<edge from-layer="488" from-port="5" to-layer="495" to-port="0"/>
		<edge from-layer="494" from-port="5" to-layer="495" to-port="1"/>
		<edge from-layer="495" from-port="2" to-layer="497" to-port="0"/>
		<edge from-layer="496" from-port="1" to-layer="497" to-port="1"/>
		<edge from-layer="497" from-port="2" to-layer="498" to-port="0"/>
		<edge from-layer="498" from-port="1" to-layer="503" to-port="0"/>
		<edge from-layer="499" from-port="1" to-layer="503" to-port="1"/>
		<edge from-layer="500" from-port="1" to-layer="503" to-port="2"/>
		<edge from-layer="501" from-port="1" to-layer="503" to-port="3"/>
		<edge from-layer="502" from-port="1" to-layer="503" to-port="4"/>
		<edge from-layer="504" from-port="1" to-layer="509" to-port="0"/>
		<edge from-layer="505" from-port="1" to-layer="509" to-port="1"/>
		<edge from-layer="506" from-port="1" to-layer="509" to-port="2"/>
		<edge from-layer="507" from-port="1" to-layer="509" to-port="3"/>
		<edge from-layer="508" from-port="1" to-layer="509" to-port="4"/>
		<edge from-layer="503" from-port="5" to-layer="510" to-port="0"/>
		<edge from-layer="509" from-port="5" to-layer="510" to-port="1"/>
		<edge from-layer="510" from-port="2" to-layer="512" to-port="0"/>
		<edge from-layer="511" from-port="1" to-layer="512" to-port="1"/>
		<edge from-layer="512" from-port="2" to-layer="517" to-port="0"/>
		<edge from-layer="513" from-port="1" to-layer="517" to-port="1"/>
		<edge from-layer="514" from-port="1" to-layer="517" to-port="2"/>
		<edge from-layer="515" from-port="1" to-layer="517" to-port="3"/>
		<edge from-layer="516" from-port="1" to-layer="517" to-port="4"/>
		<edge from-layer="517" from-port="5" to-layer="518" to-port="0"/>
		<edge from-layer="473" from-port="5" to-layer="518" to-port="1"/>
		<edge from-layer="518" from-port="2" to-layer="519" to-port="0"/>
		<edge from-layer="519" from-port="1" to-layer="524" to-port="0"/>
		<edge from-layer="520" from-port="1" to-layer="524" to-port="1"/>
		<edge from-layer="521" from-port="1" to-layer="524" to-port="2"/>
		<edge from-layer="522" from-port="1" to-layer="524" to-port="3"/>
		<edge from-layer="523" from-port="1" to-layer="524" to-port="4"/>
		<edge from-layer="525" from-port="1" to-layer="530" to-port="0"/>
		<edge from-layer="526" from-port="1" to-layer="530" to-port="1"/>
		<edge from-layer="527" from-port="1" to-layer="530" to-port="2"/>
		<edge from-layer="528" from-port="1" to-layer="530" to-port="3"/>
		<edge from-layer="529" from-port="1" to-layer="530" to-port="4"/>
		<edge from-layer="524" from-port="5" to-layer="531" to-port="0"/>
		<edge from-layer="530" from-port="5" to-layer="531" to-port="1"/>
		<edge from-layer="531" from-port="2" to-layer="533" to-port="0"/>
		<edge from-layer="532" from-port="1" to-layer="533" to-port="1"/>
		<edge from-layer="533" from-port="2" to-layer="534" to-port="0"/>
		<edge from-layer="534" from-port="1" to-layer="539" to-port="0"/>
		<edge from-layer="535" from-port="1" to-layer="539" to-port="1"/>
		<edge from-layer="536" from-port="1" to-layer="539" to-port="2"/>
		<edge from-layer="537" from-port="1" to-layer="539" to-port="3"/>
		<edge from-layer="538" from-port="1" to-layer="539" to-port="4"/>
		<edge from-layer="540" from-port="1" to-layer="545" to-port="0"/>
		<edge from-layer="541" from-port="1" to-layer="545" to-port="1"/>
		<edge from-layer="542" from-port="1" to-layer="545" to-port="2"/>
		<edge from-layer="543" from-port="1" to-layer="545" to-port="3"/>
		<edge from-layer="544" from-port="1" to-layer="545" to-port="4"/>
		<edge from-layer="539" from-port="5" to-layer="546" to-port="0"/>
		<edge from-layer="545" from-port="5" to-layer="546" to-port="1"/>
		<edge from-layer="546" from-port="2" to-layer="548" to-port="0"/>
		<edge from-layer="547" from-port="1" to-layer="548" to-port="1"/>
		<edge from-layer="548" from-port="2" to-layer="549" to-port="0"/>
		<edge from-layer="549" from-port="1" to-layer="554" to-port="0"/>
		<edge from-layer="550" from-port="1" to-layer="554" to-port="1"/>
		<edge from-layer="551" from-port="1" to-layer="554" to-port="2"/>
		<edge from-layer="552" from-port="1" to-layer="554" to-port="3"/>
		<edge from-layer="553" from-port="1" to-layer="554" to-port="4"/>
		<edge from-layer="555" from-port="1" to-layer="560" to-port="0"/>
		<edge from-layer="556" from-port="1" to-layer="560" to-port="1"/>
		<edge from-layer="557" from-port="1" to-layer="560" to-port="2"/>
		<edge from-layer="558" from-port="1" to-layer="560" to-port="3"/>
		<edge from-layer="559" from-port="1" to-layer="560" to-port="4"/>
		<edge from-layer="554" from-port="5" to-layer="561" to-port="0"/>
		<edge from-layer="560" from-port="5" to-layer="561" to-port="1"/>
		<edge from-layer="561" from-port="2" to-layer="563" to-port="0"/>
		<edge from-layer="562" from-port="1" to-layer="563" to-port="1"/>
		<edge from-layer="563" from-port="2" to-layer="568" to-port="0"/>
		<edge from-layer="564" from-port="1" to-layer="568" to-port="1"/>
		<edge from-layer="565" from-port="1" to-layer="568" to-port="2"/>
		<edge from-layer="566" from-port="1" to-layer="568" to-port="3"/>
		<edge from-layer="567" from-port="1" to-layer="568" to-port="4"/>
		<edge from-layer="568" from-port="5" to-layer="569" to-port="0"/>
		<edge from-layer="524" from-port="5" to-layer="569" to-port="1"/>
		<edge from-layer="569" from-port="2" to-layer="570" to-port="0"/>
		<edge from-layer="570" from-port="1" to-layer="575" to-port="0"/>
		<edge from-layer="571" from-port="1" to-layer="575" to-port="1"/>
		<edge from-layer="572" from-port="1" to-layer="575" to-port="2"/>
		<edge from-layer="573" from-port="1" to-layer="575" to-port="3"/>
		<edge from-layer="574" from-port="1" to-layer="575" to-port="4"/>
		<edge from-layer="576" from-port="1" to-layer="581" to-port="0"/>
		<edge from-layer="577" from-port="1" to-layer="581" to-port="1"/>
		<edge from-layer="578" from-port="1" to-layer="581" to-port="2"/>
		<edge from-layer="579" from-port="1" to-layer="581" to-port="3"/>
		<edge from-layer="580" from-port="1" to-layer="581" to-port="4"/>
		<edge from-layer="575" from-port="5" to-layer="582" to-port="0"/>
		<edge from-layer="581" from-port="5" to-layer="582" to-port="1"/>
		<edge from-layer="582" from-port="2" to-layer="584" to-port="0"/>
		<edge from-layer="583" from-port="1" to-layer="584" to-port="1"/>
		<edge from-layer="584" from-port="2" to-layer="585" to-port="0"/>
		<edge from-layer="585" from-port="1" to-layer="590" to-port="0"/>
		<edge from-layer="586" from-port="1" to-layer="590" to-port="1"/>
		<edge from-layer="587" from-port="1" to-layer="590" to-port="2"/>
		<edge from-layer="588" from-port="1" to-layer="590" to-port="3"/>
		<edge from-layer="589" from-port="1" to-layer="590" to-port="4"/>
		<edge from-layer="591" from-port="1" to-layer="596" to-port="0"/>
		<edge from-layer="592" from-port="1" to-layer="596" to-port="1"/>
		<edge from-layer="593" from-port="1" to-layer="596" to-port="2"/>
		<edge from-layer="594" from-port="1" to-layer="596" to-port="3"/>
		<edge from-layer="595" from-port="1" to-layer="596" to-port="4"/>
		<edge from-layer="590" from-port="5" to-layer="597" to-port="0"/>
		<edge from-layer="596" from-port="5" to-layer="597" to-port="1"/>
		<edge from-layer="597" from-port="2" to-layer="599" to-port="0"/>
		<edge from-layer="598" from-port="1" to-layer="599" to-port="1"/>
		<edge from-layer="599" from-port="2" to-layer="600" to-port="0"/>
		<edge from-layer="600" from-port="1" to-layer="605" to-port="0"/>
		<edge from-layer="601" from-port="1" to-layer="605" to-port="1"/>
		<edge from-layer="602" from-port="1" to-layer="605" to-port="2"/>
		<edge from-layer="603" from-port="1" to-layer="605" to-port="3"/>
		<edge from-layer="604" from-port="1" to-layer="605" to-port="4"/>
		<edge from-layer="606" from-port="1" to-layer="611" to-port="0"/>
		<edge from-layer="607" from-port="1" to-layer="611" to-port="1"/>
		<edge from-layer="608" from-port="1" to-layer="611" to-port="2"/>
		<edge from-layer="609" from-port="1" to-layer="611" to-port="3"/>
		<edge from-layer="610" from-port="1" to-layer="611" to-port="4"/>
		<edge from-layer="605" from-port="5" to-layer="612" to-port="0"/>
		<edge from-layer="611" from-port="5" to-layer="612" to-port="1"/>
		<edge from-layer="612" from-port="2" to-layer="614" to-port="0"/>
		<edge from-layer="613" from-port="1" to-layer="614" to-port="1"/>
		<edge from-layer="614" from-port="2" to-layer="619" to-port="0"/>
		<edge from-layer="615" from-port="1" to-layer="619" to-port="1"/>
		<edge from-layer="616" from-port="1" to-layer="619" to-port="2"/>
		<edge from-layer="617" from-port="1" to-layer="619" to-port="3"/>
		<edge from-layer="618" from-port="1" to-layer="619" to-port="4"/>
		<edge from-layer="619" from-port="5" to-layer="620" to-port="0"/>
		<edge from-layer="575" from-port="5" to-layer="620" to-port="1"/>
		<edge from-layer="620" from-port="2" to-layer="621" to-port="0"/>
		<edge from-layer="621" from-port="1" to-layer="626" to-port="0"/>
		<edge from-layer="622" from-port="1" to-layer="626" to-port="1"/>
		<edge from-layer="623" from-port="1" to-layer="626" to-port="2"/>
		<edge from-layer="624" from-port="1" to-layer="626" to-port="3"/>
		<edge from-layer="625" from-port="1" to-layer="626" to-port="4"/>
		<edge from-layer="627" from-port="1" to-layer="632" to-port="0"/>
		<edge from-layer="628" from-port="1" to-layer="632" to-port="1"/>
		<edge from-layer="629" from-port="1" to-layer="632" to-port="2"/>
		<edge from-layer="630" from-port="1" to-layer="632" to-port="3"/>
		<edge from-layer="631" from-port="1" to-layer="632" to-port="4"/>
		<edge from-layer="626" from-port="5" to-layer="633" to-port="0"/>
		<edge from-layer="632" from-port="5" to-layer="633" to-port="1"/>
		<edge from-layer="633" from-port="2" to-layer="635" to-port="0"/>
		<edge from-layer="634" from-port="1" to-layer="635" to-port="1"/>
		<edge from-layer="635" from-port="2" to-layer="636" to-port="0"/>
		<edge from-layer="636" from-port="1" to-layer="641" to-port="0"/>
		<edge from-layer="637" from-port="1" to-layer="641" to-port="1"/>
		<edge from-layer="638" from-port="1" to-layer="641" to-port="2"/>
		<edge from-layer="639" from-port="1" to-layer="641" to-port="3"/>
		<edge from-layer="640" from-port="1" to-layer="641" to-port="4"/>
		<edge from-layer="642" from-port="1" to-layer="647" to-port="0"/>
		<edge from-layer="643" from-port="1" to-layer="647" to-port="1"/>
		<edge from-layer="644" from-port="1" to-layer="647" to-port="2"/>
		<edge from-layer="645" from-port="1" to-layer="647" to-port="3"/>
		<edge from-layer="646" from-port="1" to-layer="647" to-port="4"/>
		<edge from-layer="641" from-port="5" to-layer="648" to-port="0"/>
		<edge from-layer="647" from-port="5" to-layer="648" to-port="1"/>
		<edge from-layer="648" from-port="2" to-layer="650" to-port="0"/>
		<edge from-layer="649" from-port="1" to-layer="650" to-port="1"/>
		<edge from-layer="650" from-port="2" to-layer="651" to-port="0"/>
		<edge from-layer="651" from-port="1" to-layer="656" to-port="0"/>
		<edge from-layer="652" from-port="1" to-layer="656" to-port="1"/>
		<edge from-layer="653" from-port="1" to-layer="656" to-port="2"/>
		<edge from-layer="654" from-port="1" to-layer="656" to-port="3"/>
		<edge from-layer="655" from-port="1" to-layer="656" to-port="4"/>
		<edge from-layer="657" from-port="1" to-layer="662" to-port="0"/>
		<edge from-layer="658" from-port="1" to-layer="662" to-port="1"/>
		<edge from-layer="659" from-port="1" to-layer="662" to-port="2"/>
		<edge from-layer="660" from-port="1" to-layer="662" to-port="3"/>
		<edge from-layer="661" from-port="1" to-layer="662" to-port="4"/>
		<edge from-layer="656" from-port="5" to-layer="663" to-port="0"/>
		<edge from-layer="662" from-port="5" to-layer="663" to-port="1"/>
		<edge from-layer="663" from-port="2" to-layer="665" to-port="0"/>
		<edge from-layer="664" from-port="1" to-layer="665" to-port="1"/>
		<edge from-layer="665" from-port="2" to-layer="670" to-port="0"/>
		<edge from-layer="666" from-port="1" to-layer="670" to-port="1"/>
		<edge from-layer="667" from-port="1" to-layer="670" to-port="2"/>
		<edge from-layer="668" from-port="1" to-layer="670" to-port="3"/>
		<edge from-layer="669" from-port="1" to-layer="670" to-port="4"/>
		<edge from-layer="670" from-port="5" to-layer="671" to-port="0"/>
		<edge from-layer="626" from-port="5" to-layer="671" to-port="1"/>
		<edge from-layer="671" from-port="2" to-layer="672" to-port="0"/>
		<edge from-layer="672" from-port="1" to-layer="677" to-port="0"/>
		<edge from-layer="673" from-port="1" to-layer="677" to-port="1"/>
		<edge from-layer="674" from-port="1" to-layer="677" to-port="2"/>
		<edge from-layer="675" from-port="1" to-layer="677" to-port="3"/>
		<edge from-layer="676" from-port="1" to-layer="677" to-port="4"/>
		<edge from-layer="678" from-port="1" to-layer="683" to-port="0"/>
		<edge from-layer="679" from-port="1" to-layer="683" to-port="1"/>
		<edge from-layer="680" from-port="1" to-layer="683" to-port="2"/>
		<edge from-layer="681" from-port="1" to-layer="683" to-port="3"/>
		<edge from-layer="682" from-port="1" to-layer="683" to-port="4"/>
		<edge from-layer="677" from-port="5" to-layer="684" to-port="0"/>
		<edge from-layer="683" from-port="5" to-layer="684" to-port="1"/>
		<edge from-layer="684" from-port="2" to-layer="686" to-port="0"/>
		<edge from-layer="685" from-port="1" to-layer="686" to-port="1"/>
		<edge from-layer="686" from-port="2" to-layer="687" to-port="0"/>
		<edge from-layer="687" from-port="1" to-layer="692" to-port="0"/>
		<edge from-layer="688" from-port="1" to-layer="692" to-port="1"/>
		<edge from-layer="689" from-port="1" to-layer="692" to-port="2"/>
		<edge from-layer="690" from-port="1" to-layer="692" to-port="3"/>
		<edge from-layer="691" from-port="1" to-layer="692" to-port="4"/>
		<edge from-layer="693" from-port="1" to-layer="698" to-port="0"/>
		<edge from-layer="694" from-port="1" to-layer="698" to-port="1"/>
		<edge from-layer="695" from-port="1" to-layer="698" to-port="2"/>
		<edge from-layer="696" from-port="1" to-layer="698" to-port="3"/>
		<edge from-layer="697" from-port="1" to-layer="698" to-port="4"/>
		<edge from-layer="692" from-port="5" to-layer="699" to-port="0"/>
		<edge from-layer="698" from-port="5" to-layer="699" to-port="1"/>
		<edge from-layer="699" from-port="2" to-layer="701" to-port="0"/>
		<edge from-layer="700" from-port="1" to-layer="701" to-port="1"/>
		<edge from-layer="701" from-port="2" to-layer="702" to-port="0"/>
		<edge from-layer="702" from-port="1" to-layer="707" to-port="0"/>
		<edge from-layer="703" from-port="1" to-layer="707" to-port="1"/>
		<edge from-layer="704" from-port="1" to-layer="707" to-port="2"/>
		<edge from-layer="705" from-port="1" to-layer="707" to-port="3"/>
		<edge from-layer="706" from-port="1" to-layer="707" to-port="4"/>
		<edge from-layer="708" from-port="1" to-layer="713" to-port="0"/>
		<edge from-layer="709" from-port="1" to-layer="713" to-port="1"/>
		<edge from-layer="710" from-port="1" to-layer="713" to-port="2"/>
		<edge from-layer="711" from-port="1" to-layer="713" to-port="3"/>
		<edge from-layer="712" from-port="1" to-layer="713" to-port="4"/>
		<edge from-layer="707" from-port="5" to-layer="714" to-port="0"/>
		<edge from-layer="713" from-port="5" to-layer="714" to-port="1"/>
		<edge from-layer="714" from-port="2" to-layer="716" to-port="0"/>
		<edge from-layer="715" from-port="1" to-layer="716" to-port="1"/>
		<edge from-layer="716" from-port="2" to-layer="721" to-port="0"/>
		<edge from-layer="717" from-port="1" to-layer="721" to-port="1"/>
		<edge from-layer="718" from-port="1" to-layer="721" to-port="2"/>
		<edge from-layer="719" from-port="1" to-layer="721" to-port="3"/>
		<edge from-layer="720" from-port="1" to-layer="721" to-port="4"/>
		<edge from-layer="721" from-port="5" to-layer="722" to-port="0"/>
		<edge from-layer="677" from-port="5" to-layer="722" to-port="1"/>
		<edge from-layer="722" from-port="2" to-layer="723" to-port="0"/>
		<edge from-layer="723" from-port="1" to-layer="728" to-port="0"/>
		<edge from-layer="724" from-port="1" to-layer="728" to-port="1"/>
		<edge from-layer="725" from-port="1" to-layer="728" to-port="2"/>
		<edge from-layer="726" from-port="1" to-layer="728" to-port="3"/>
		<edge from-layer="727" from-port="1" to-layer="728" to-port="4"/>
		<edge from-layer="729" from-port="1" to-layer="734" to-port="0"/>
		<edge from-layer="730" from-port="1" to-layer="734" to-port="1"/>
		<edge from-layer="731" from-port="1" to-layer="734" to-port="2"/>
		<edge from-layer="732" from-port="1" to-layer="734" to-port="3"/>
		<edge from-layer="733" from-port="1" to-layer="734" to-port="4"/>
		<edge from-layer="728" from-port="5" to-layer="735" to-port="0"/>
		<edge from-layer="734" from-port="5" to-layer="735" to-port="1"/>
		<edge from-layer="735" from-port="2" to-layer="737" to-port="0"/>
		<edge from-layer="736" from-port="1" to-layer="737" to-port="1"/>
		<edge from-layer="737" from-port="2" to-layer="738" to-port="0"/>
		<edge from-layer="738" from-port="1" to-layer="743" to-port="0"/>
		<edge from-layer="739" from-port="1" to-layer="743" to-port="1"/>
		<edge from-layer="740" from-port="1" to-layer="743" to-port="2"/>
		<edge from-layer="741" from-port="1" to-layer="743" to-port="3"/>
		<edge from-layer="742" from-port="1" to-layer="743" to-port="4"/>
		<edge from-layer="744" from-port="1" to-layer="749" to-port="0"/>
		<edge from-layer="745" from-port="1" to-layer="749" to-port="1"/>
		<edge from-layer="746" from-port="1" to-layer="749" to-port="2"/>
		<edge from-layer="747" from-port="1" to-layer="749" to-port="3"/>
		<edge from-layer="748" from-port="1" to-layer="749" to-port="4"/>
		<edge from-layer="743" from-port="5" to-layer="750" to-port="0"/>
		<edge from-layer="749" from-port="5" to-layer="750" to-port="1"/>
		<edge from-layer="750" from-port="2" to-layer="752" to-port="0"/>
		<edge from-layer="751" from-port="1" to-layer="752" to-port="1"/>
		<edge from-layer="752" from-port="2" to-layer="753" to-port="0"/>
		<edge from-layer="753" from-port="1" to-layer="758" to-port="0"/>
		<edge from-layer="754" from-port="1" to-layer="758" to-port="1"/>
		<edge from-layer="755" from-port="1" to-layer="758" to-port="2"/>
		<edge from-layer="756" from-port="1" to-layer="758" to-port="3"/>
		<edge from-layer="757" from-port="1" to-layer="758" to-port="4"/>
		<edge from-layer="759" from-port="1" to-layer="764" to-port="0"/>
		<edge from-layer="760" from-port="1" to-layer="764" to-port="1"/>
		<edge from-layer="761" from-port="1" to-layer="764" to-port="2"/>
		<edge from-layer="762" from-port="1" to-layer="764" to-port="3"/>
		<edge from-layer="763" from-port="1" to-layer="764" to-port="4"/>
		<edge from-layer="758" from-port="5" to-layer="765" to-port="0"/>
		<edge from-layer="764" from-port="5" to-layer="765" to-port="1"/>
		<edge from-layer="765" from-port="2" to-layer="767" to-port="0"/>
		<edge from-layer="766" from-port="1" to-layer="767" to-port="1"/>
		<edge from-layer="767" from-port="2" to-layer="772" to-port="0"/>
		<edge from-layer="768" from-port="1" to-layer="772" to-port="1"/>
		<edge from-layer="769" from-port="1" to-layer="772" to-port="2"/>
		<edge from-layer="770" from-port="1" to-layer="772" to-port="3"/>
		<edge from-layer="771" from-port="1" to-layer="772" to-port="4"/>
		<edge from-layer="773" from-port="1" to-layer="778" to-port="0"/>
		<edge from-layer="774" from-port="1" to-layer="778" to-port="1"/>
		<edge from-layer="775" from-port="1" to-layer="778" to-port="2"/>
		<edge from-layer="776" from-port="1" to-layer="778" to-port="3"/>
		<edge from-layer="777" from-port="1" to-layer="778" to-port="4"/>
		<edge from-layer="728" from-port="5" to-layer="779" to-port="0"/>
		<edge from-layer="778" from-port="5" to-layer="779" to-port="1"/>
		<edge from-layer="779" from-port="2" to-layer="781" to-port="0"/>
		<edge from-layer="780" from-port="1" to-layer="781" to-port="1"/>
		<edge from-layer="781" from-port="2" to-layer="786" to-port="0"/>
		<edge from-layer="782" from-port="1" to-layer="786" to-port="1"/>
		<edge from-layer="783" from-port="1" to-layer="786" to-port="2"/>
		<edge from-layer="784" from-port="1" to-layer="786" to-port="3"/>
		<edge from-layer="785" from-port="1" to-layer="786" to-port="4"/>
		<edge from-layer="772" from-port="5" to-layer="787" to-port="0"/>
		<edge from-layer="786" from-port="5" to-layer="787" to-port="1"/>
		<edge from-layer="787" from-port="2" to-layer="788" to-port="0"/>
		<edge from-layer="788" from-port="1" to-layer="793" to-port="0"/>
		<edge from-layer="789" from-port="1" to-layer="793" to-port="1"/>
		<edge from-layer="790" from-port="1" to-layer="793" to-port="2"/>
		<edge from-layer="791" from-port="1" to-layer="793" to-port="3"/>
		<edge from-layer="792" from-port="1" to-layer="793" to-port="4"/>
		<edge from-layer="794" from-port="1" to-layer="799" to-port="0"/>
		<edge from-layer="795" from-port="1" to-layer="799" to-port="1"/>
		<edge from-layer="796" from-port="1" to-layer="799" to-port="2"/>
		<edge from-layer="797" from-port="1" to-layer="799" to-port="3"/>
		<edge from-layer="798" from-port="1" to-layer="799" to-port="4"/>
		<edge from-layer="793" from-port="5" to-layer="800" to-port="0"/>
		<edge from-layer="799" from-port="5" to-layer="800" to-port="1"/>
		<edge from-layer="800" from-port="2" to-layer="802" to-port="0"/>
		<edge from-layer="801" from-port="1" to-layer="802" to-port="1"/>
		<edge from-layer="802" from-port="2" to-layer="803" to-port="0"/>
		<edge from-layer="803" from-port="1" to-layer="808" to-port="0"/>
		<edge from-layer="804" from-port="1" to-layer="808" to-port="1"/>
		<edge from-layer="805" from-port="1" to-layer="808" to-port="2"/>
		<edge from-layer="806" from-port="1" to-layer="808" to-port="3"/>
		<edge from-layer="807" from-port="1" to-layer="808" to-port="4"/>
		<edge from-layer="809" from-port="1" to-layer="814" to-port="0"/>
		<edge from-layer="810" from-port="1" to-layer="814" to-port="1"/>
		<edge from-layer="811" from-port="1" to-layer="814" to-port="2"/>
		<edge from-layer="812" from-port="1" to-layer="814" to-port="3"/>
		<edge from-layer="813" from-port="1" to-layer="814" to-port="4"/>
		<edge from-layer="808" from-port="5" to-layer="815" to-port="0"/>
		<edge from-layer="814" from-port="5" to-layer="815" to-port="1"/>
		<edge from-layer="815" from-port="2" to-layer="817" to-port="0"/>
		<edge from-layer="816" from-port="1" to-layer="817" to-port="1"/>
		<edge from-layer="817" from-port="2" to-layer="818" to-port="0"/>
		<edge from-layer="818" from-port="1" to-layer="823" to-port="0"/>
		<edge from-layer="819" from-port="1" to-layer="823" to-port="1"/>
		<edge from-layer="820" from-port="1" to-layer="823" to-port="2"/>
		<edge from-layer="821" from-port="1" to-layer="823" to-port="3"/>
		<edge from-layer="822" from-port="1" to-layer="823" to-port="4"/>
		<edge from-layer="824" from-port="1" to-layer="829" to-port="0"/>
		<edge from-layer="825" from-port="1" to-layer="829" to-port="1"/>
		<edge from-layer="826" from-port="1" to-layer="829" to-port="2"/>
		<edge from-layer="827" from-port="1" to-layer="829" to-port="3"/>
		<edge from-layer="828" from-port="1" to-layer="829" to-port="4"/>
		<edge from-layer="823" from-port="5" to-layer="830" to-port="0"/>
		<edge from-layer="829" from-port="5" to-layer="830" to-port="1"/>
		<edge from-layer="830" from-port="2" to-layer="832" to-port="0"/>
		<edge from-layer="831" from-port="1" to-layer="832" to-port="1"/>
		<edge from-layer="832" from-port="2" to-layer="837" to-port="0"/>
		<edge from-layer="833" from-port="1" to-layer="837" to-port="1"/>
		<edge from-layer="834" from-port="1" to-layer="837" to-port="2"/>
		<edge from-layer="835" from-port="1" to-layer="837" to-port="3"/>
		<edge from-layer="836" from-port="1" to-layer="837" to-port="4"/>
		<edge from-layer="837" from-port="5" to-layer="838" to-port="0"/>
		<edge from-layer="793" from-port="5" to-layer="838" to-port="1"/>
		<edge from-layer="838" from-port="2" to-layer="839" to-port="0"/>
		<edge from-layer="839" from-port="1" to-layer="844" to-port="0"/>
		<edge from-layer="840" from-port="1" to-layer="844" to-port="1"/>
		<edge from-layer="841" from-port="1" to-layer="844" to-port="2"/>
		<edge from-layer="842" from-port="1" to-layer="844" to-port="3"/>
		<edge from-layer="843" from-port="1" to-layer="844" to-port="4"/>
		<edge from-layer="845" from-port="1" to-layer="850" to-port="0"/>
		<edge from-layer="846" from-port="1" to-layer="850" to-port="1"/>
		<edge from-layer="847" from-port="1" to-layer="850" to-port="2"/>
		<edge from-layer="848" from-port="1" to-layer="850" to-port="3"/>
		<edge from-layer="849" from-port="1" to-layer="850" to-port="4"/>
		<edge from-layer="844" from-port="5" to-layer="851" to-port="0"/>
		<edge from-layer="850" from-port="5" to-layer="851" to-port="1"/>
		<edge from-layer="851" from-port="2" to-layer="853" to-port="0"/>
		<edge from-layer="852" from-port="1" to-layer="853" to-port="1"/>
		<edge from-layer="853" from-port="2" to-layer="854" to-port="0"/>
		<edge from-layer="854" from-port="1" to-layer="859" to-port="0"/>
		<edge from-layer="855" from-port="1" to-layer="859" to-port="1"/>
		<edge from-layer="856" from-port="1" to-layer="859" to-port="2"/>
		<edge from-layer="857" from-port="1" to-layer="859" to-port="3"/>
		<edge from-layer="858" from-port="1" to-layer="859" to-port="4"/>
		<edge from-layer="860" from-port="1" to-layer="865" to-port="0"/>
		<edge from-layer="861" from-port="1" to-layer="865" to-port="1"/>
		<edge from-layer="862" from-port="1" to-layer="865" to-port="2"/>
		<edge from-layer="863" from-port="1" to-layer="865" to-port="3"/>
		<edge from-layer="864" from-port="1" to-layer="865" to-port="4"/>
		<edge from-layer="859" from-port="5" to-layer="866" to-port="0"/>
		<edge from-layer="865" from-port="5" to-layer="866" to-port="1"/>
		<edge from-layer="866" from-port="2" to-layer="868" to-port="0"/>
		<edge from-layer="867" from-port="1" to-layer="868" to-port="1"/>
		<edge from-layer="868" from-port="2" to-layer="869" to-port="0"/>
		<edge from-layer="869" from-port="1" to-layer="874" to-port="0"/>
		<edge from-layer="870" from-port="1" to-layer="874" to-port="1"/>
		<edge from-layer="871" from-port="1" to-layer="874" to-port="2"/>
		<edge from-layer="872" from-port="1" to-layer="874" to-port="3"/>
		<edge from-layer="873" from-port="1" to-layer="874" to-port="4"/>
		<edge from-layer="875" from-port="1" to-layer="880" to-port="0"/>
		<edge from-layer="876" from-port="1" to-layer="880" to-port="1"/>
		<edge from-layer="877" from-port="1" to-layer="880" to-port="2"/>
		<edge from-layer="878" from-port="1" to-layer="880" to-port="3"/>
		<edge from-layer="879" from-port="1" to-layer="880" to-port="4"/>
		<edge from-layer="874" from-port="5" to-layer="881" to-port="0"/>
		<edge from-layer="880" from-port="5" to-layer="881" to-port="1"/>
		<edge from-layer="881" from-port="2" to-layer="883" to-port="0"/>
		<edge from-layer="882" from-port="1" to-layer="883" to-port="1"/>
		<edge from-layer="883" from-port="2" to-layer="888" to-port="0"/>
		<edge from-layer="884" from-port="1" to-layer="888" to-port="1"/>
		<edge from-layer="885" from-port="1" to-layer="888" to-port="2"/>
		<edge from-layer="886" from-port="1" to-layer="888" to-port="3"/>
		<edge from-layer="887" from-port="1" to-layer="888" to-port="4"/>
		<edge from-layer="888" from-port="5" to-layer="889" to-port="0"/>
		<edge from-layer="844" from-port="5" to-layer="889" to-port="1"/>
		<edge from-layer="889" from-port="2" to-layer="890" to-port="0"/>
		<edge from-layer="890" from-port="1" to-layer="895" to-port="0"/>
		<edge from-layer="891" from-port="1" to-layer="895" to-port="1"/>
		<edge from-layer="892" from-port="1" to-layer="895" to-port="2"/>
		<edge from-layer="893" from-port="1" to-layer="895" to-port="3"/>
		<edge from-layer="894" from-port="1" to-layer="895" to-port="4"/>
		<edge from-layer="895" from-port="5" to-layer="897" to-port="0"/>
		<edge from-layer="896" from-port="1" to-layer="897" to-port="1"/>
		<edge from-layer="897" from-port="2" to-layer="899" to-port="0"/>
		<edge from-layer="898" from-port="1" to-layer="899" to-port="1"/>
		<edge from-layer="899" from-port="2" to-layer="904" to-port="0"/>
		<edge from-layer="900" from-port="1" to-layer="904" to-port="1"/>
		<edge from-layer="901" from-port="1" to-layer="904" to-port="2"/>
		<edge from-layer="902" from-port="1" to-layer="904" to-port="3"/>
		<edge from-layer="903" from-port="1" to-layer="904" to-port="4"/>
		<edge from-layer="904" from-port="5" to-layer="906" to-port="0"/>
		<edge from-layer="905" from-port="1" to-layer="906" to-port="1"/>
		<edge from-layer="907" from-port="1" to-layer="912" to-port="0"/>
		<edge from-layer="908" from-port="1" to-layer="912" to-port="1"/>
		<edge from-layer="909" from-port="1" to-layer="912" to-port="2"/>
		<edge from-layer="910" from-port="1" to-layer="912" to-port="3"/>
		<edge from-layer="911" from-port="1" to-layer="912" to-port="4"/>
		<edge from-layer="906" from-port="2" to-layer="913" to-port="0"/>
		<edge from-layer="912" from-port="5" to-layer="913" to-port="1"/>
		<edge from-layer="913" from-port="2" to-layer="915" to-port="0"/>
		<edge from-layer="914" from-port="1" to-layer="915" to-port="1"/>
		<edge from-layer="915" from-port="2" to-layer="916" to-port="0"/>
		<edge from-layer="916" from-port="1" to-layer="917" to-port="0"/>
	</edges>
	<meta_data>
		<MO_version value="2020.1.0-61-gd349c3ba4a"/>
		<cli_parameters>
			<blobs_as_inputs value="True"/>
			<data_type value="DIR"/>
			<disable_nhwc_to_nchw value="False"/>
			<disable_resnet_optimization value="False"/>
			<enable_concat_optimization value="False"/>
			<extensions value="DIR"/>
			<framework value="tf"/>
			<freeze_placeholder_with_value value="{}"/>
			<generate_deprecated_IR_V2 value="False"/>
			<generate_deprecated_IR_V7 value="False"/>
			<generate_experimental_IR_V10 value="True"/>
			<input_model value="DIR/resnet50_v1.pb"/>
			<input_model_is_text value="False"/>
			<input_shape value="[1,224,224,3]"/>
			<keep_quantize_ops_in_IR value="True"/>
			<keep_shape_ops value="False"/>
			<log_level value="ERROR"/>
			<mean_scale_values value="[(array([123.68, 116.78, 103.94]), None)]"/>
			<mean_values value="[123.68, 116.78, 103.94]"/>
			<model_name value="resnet-50-tf-mean-inside"/>
			<move_to_preprocess value="False"/>
			<output value="['softmax_tensor']"/>
			<output_dir value="DIR"/>
			<placeholder_data_types value="{}"/>
			<placeholder_shapes value="[  1 224 224   3]"/>
			<progress value="False"/>
			<reverse_input_channels value="False"/>
			<scale_values value="()"/>
			<silent value="False"/>
			<stream_output value="False"/>
			<unset unset_cli_parameters="batch, disable_fusing, disable_gfusing, finegrain_fusing, input, input_checkpoint, input_meta_graph, saved_model_dir, saved_model_tags, scale, tensorboard_logdir, tensorflow_custom_layer_libraries, tensorflow_custom_operations_config_update, tensorflow_object_detection_api_pipeline_config, tensorflow_operation_patterns, tensorflow_subgraph_patterns, tensorflow_use_custom_operations_config, transformations_config"/>
		</cli_parameters>
	</meta_data>
</net>
